UnitEye/Resources/ONNX/EyeMUBase.onnx (onnx, 691491 bytes, 28 tensors)

StatefulPartitionedCall/naturepapereyemodel/layer_normalization/Reshape_1:0 f4 [1, 128, 1, 1]
00000000: 3e3d b63d 7474 113e 1a6a da3d f1df a23d
00000010: e294 8d3c c849 11bd aad3 fbbc b106 a8bc
00000020: 3890 50bd 8868 b8bc 71ec 143e 7f80 b33d
00000030: afff 033e 91a9 443e 4c6c 583d 177f 033e
00000040: 1f68 efbd a120 8d3d c8c6 fdbd 96ba ca3c
00000050: fb95 c5bd a305 90bd 9a31 d3bd d489 53bc
00000060: aac1 13be e267 2e3c 5605 0fbe 2f7e 9b3c
00000070: 20df debd fa00 9f3c bce4 dfbd 0ca2 a5bd
00000080: 6595 d6bd b74e 9abd 234d 01be 075d 9fbd
00000090: 3741 c8bd 2b83 55bd 05d2 18be 97d4 69bd
000000a0: 5fc6 27be 999c ebbd 3ca3 bbbd 4d3a a3bd
000000b0: b57e 01be ac49 453d d9a2 0dbe bd40 373d
000000c0: 86b9 08be 8407 fa3d cd70 833d 472d fb3d
000000d0: 1ac2 fa3d b1a8 cb3d 0595 ba3d 8e72 123e
000000e0: 8341 fd3d 4be3 f23d 09f5 ee3d 56ef 9f3d
000000f0: 2658 e53d f50e 8d3d a174 f23d 5528 b23d
00000100: ebba e23d 31f5 413d 678a 7c3d d360 083d
00000110: 0dce 8a3d bdd7 a5bd cc4a b33d 24e7 a8bd
00000120: 0ccd 183d f3a5 78bd 6e91 333d 0bdc 27bd
00000130: 8991 9e3d 087c 45bd 5552 283d 457d 233e
00000140: 6073 3e3e ca18 de3d 9022 f73d 0688 c53d
00000150: 3852 9e3d fa6e a2bd 4d6a 98bd 7f89 37bb
00000160: c50b 29bd c152 77bd 1306 443d 3e1d 30bd
00000170: f75f c33d 406a a63d 6673 013e c583 a93d
00000180: 0f11 3d3e 8ec6 653d 81a8 3f3e 48d8 ed3d
00000190: 4d9d 3e3e 7ee3 183e e853 323e e2ff 0d3e
000001a0: 7e4c 353e 1918 013e 57e3 823b 6f03 1cbd
000001b0: df0d 99bd 0872 83bd fd66 8ebd b2bb babd
000001c0: 1a4d 82bd 659d aebd 44f0 26be c612 b0bd
000001d0: ad14 29be c1ac b0bd 6f0b 26be 9836 b1bd
000001e0: 9c4a 23be b03b b1bd 7acd 2dbe 2a6d b0bd
000001f0: ef3e 22be 0000 0000 0000 0000 0000 0000
0.088984 0.1420458 0.106647685 0.0795287 0.017282907 -0.035470754 -0.030740578 -0.020511003
-0.050918788 -0.022510782 0.1454332 0.08764743 0.12890504 0.1920531 0.052837655 0.1284145
-0.116897814 0.06890989 -0.1239143 0.024747174 -0.09647747 -0.07032325 -0.10312195 -0.012911279
-0.14429346 0.010644885 -0.13966879 0.018981067 -0.108824015 0.019409645 -0.109322995 -0.080875486
-0.104777135 -0.07534545 -0.12627082 -0.077814154 -0.09778064 -0.052127045 -0.14923866 -0.057087507
-0.16384266 -0.11504478 -0.09161994 -0.07970104 -0.12645991 0.048165962 -0.13831653 0.044739474
-0.13352022 0.12208465 0.064179994 0.12264495 0.12244053 0.09944285 0.091104545 0.14301512
0.12366011 0.11859759 0.116678305 0.078093216 0.111984536 0.068876185 0.118386514 0.08699099
0.11070808 0.047352973 0.06165543 0.033295464 0.06777582 -0.080977894 0.08754501 -0.082472116
0.037304923 -0.060705137 0.043839864 -0.040981334 0.077426024 -0.04821399 0.041094143 0.15965755
0.185987 0.10844572 0.12067139 0.09645085 0.07730526 -0.07931323 -0.0744215 -0.0028005538
-0.04127099 -0.060381655 0.047857355 -0.042996638 0.09539788 0.08125734 0.12641677 0.08277086
0.18463539 0.05609756 0.18716623 0.11613518 0.18614693 0.14930531 0.1741482 0.13867143
0.1770496 0.12606849 0.003994386 -0.038089212 -0.07473349 -0.06418234 -0.06953237 -0.09117831
-0.06362362 -0.085261144 -0.16302592 -0.08597331 -0.16511793 -0.086267 -0.16215299 -0.08652991
-0.1594643 -0.086539626 -0.16972914 -0.086145714 -0.1584432 0.0 0.0 0.0

StatefulPartitionedCall/naturepapereyemodel/layer_normalization/Reshape:0 f4 [1, 128, 1, 1]
00000000: 9865 6c3f 59d6 703f 7721 773f 00a8 8b3f
00000010: b2d8 873f ed4e 883f 7f8c 883f 5ed6 873f
00000020: 144b 8d3f d638 8c3f d5e1 8c3f 63eb 8b3f
00000030: 8fd7 883f 678e 883f 4152 893f 86c8 8c3f
00000040: 5dfe 883f e257 8c3f 88d3 883f 2294 883f
00000050: ecf0 883f c638 8e3f 54f1 883f ab12 8e3f
00000060: b9db 883f 20d0 8d3f 55e5 883f d2cf 893f
00000070: 2763 8d3f e9f5 8d3f 8511 8d3f 0fe2 8d3f
00000080: 9c1b 893f 5beb 883f 5405 8d3f b9c8 883f
00000090: e80d 8c3f fec6 8c3f 6eac 873f a5f4 8c3f
000000a0: 0995 8b3f 108a 8c3f b11b 843f 1fee 853f
000000b0: 6f34 673f 4967 693f b1c8 663f fdd0 703f
000000c0: 71e1 6e3f e6f3 623f 83d4 6b3f bb0d 603f
000000d0: 2aff 673f abcc 623f 0bc6 643f f844 583f
000000e0: ee9e 5e3f f023 613f a8fd 603f 3990 6a3f
000000f0: c1df 613f aa68 673f c77b 603f dbb8 633f
00000100: e199 633f 59fa 6a3f 1df1 683f 1da9 783f
00000110: 48fd 703f b5d8 8d3f 2f3f 6d3f c989 8d3f
00000120: db8d 883f 1b9e 903f 79fc 7e3f c4da 893f
00000130: 50a8 913f 58c9 8c3f 96b4 8f3f eca4 8e3f
00000140: fde4 933f c4b4 8d3f 2a18 8a3f c03f 903f
00000150: 7174 943f 1c6e 923f bdf1 8e3f 4d0c 8d3f
00000160: 1722 8d3f 9f61 8b3f f564 913f 570a 8b3f
00000170: c451 903f fbcf 8f3f ce1c 8b3f 5715 8e3f
00000180: 53fd 8c3f c3ba 8a3f fe6f 933f c6a1 903f
00000190: ae6a 943f 9d84 843f fc1e 903f e2d7 8f3f
000001a0: 83b1 953f e597 903f d914 803f e6a0 743f
000001b0: f708 6c3f ec40 6e3f 1869 6c3f f44d 663f
000001c0: 0129 6c3f 872b 693f 0c75 563f fc37 693f
000001d0: b610 563f cc62 693f 6fab 563f 6273 693f
000001e0: 223f 573f 7fa6 693f cb47 543f b6ca 693f
000001f0: 7e4a 573f 0000 803f 0000 803f 0000 803f
0.9234252 0.9407707 0.9653544 1.0910645 1.0613005 1.0649086 1.0667876 1.0612295
1.1038537 1.0954845 1.1006418 1.0931209 1.0690783 1.0668458 1.0728227 1.0998695
1.0702626 1.096432 1.0689554 1.0670207 1.0698524 1.1111076 1.0698647 1.1099447
1.0692054 1.107914 1.0694987 1.0766547 1.1045884 1.1090671 1.1020972 1.1084613
1.0711551 1.0696825 1.1017251 1.0686256 1.0941744 1.0998228 1.0599496 1.101216
1.0904857 1.0979633 1.0320951 1.0463294 0.9031438 0.91173226 0.9014998 0.9406889
0.93312746 0.8865341 0.9212114 0.8752095 0.90623724 0.8859355 0.8936469 0.8448024
0.8696126 0.8794546 0.8788705 0.91626316 0.88232046 0.9039408 0.8768887 0.8895394
0.88906676 0.9178825 0.9099291 0.97133046 0.94136477 1.1081759 0.92674536 1.1057674
1.0668291 1.129825 0.9960399 1.0769887 1.137949 1.0998945 1.1226985 1.114408
1.1554257 1.107079 1.0788624 1.1269455 1.1598035 1.1439853 1.1167523 1.1019379
1.1026028 1.0889167 1.1358935 1.086253 1.1274953 1.1235346 1.0868165 1.1100262
1.1014808 1.0838245 1.1518552 1.1299369 1.1595056 1.035297 1.1259456 1.1237757
1.1694797 1.1296355 1.0006362 0.9555801 0.9220118 0.9306781 0.9234786 0.899627
0.92250067 0.9108204 0.8377235 0.9110105 0.8361925 0.9116638 0.83855337 0.91191685
0.8408071 0.9126968 0.8292205 0.9132494 0.8409804 1.0 1.0 1.0

StatefulPartitionedCall/naturepapereyemodel/dense_5/MatMul/ReadVariableOp:0 f4 [4, 2]
00000000: 5cec 8d3e 1b13 6d3d 218b 163e 8924 35bf
00000010: e397 b4be 1a14 f23d 97ff 50bd 8773 cb3d
0.2771939 0.05787955 0.14701511 -0.70758873 -0.3527213 0.1182024 -0.051025 0.099341445

StatefulPartitionedCall/naturepapereyemodel/dense_5/BiasAdd/ReadVariableOp:0 f4 [2]
00000000: 5d11 1f3f ebdd eb3e
0.6213587 0.46067747

StatefulPartitionedCall/naturepapereyemodel/dense_4/MatMul/ReadVariableOp:0 f4 [8, 4]
00000000: 6987 f0be d8b8 d93e 78f8 f73e d757 56be
00000010: 4f73 d93d 9ff9 083e 8327 e8be 37a7 62be
00000020: 25ef a53e 8e77 48bf 1af9 d8be 21a3 ad3e
00000030: f437 c1be aafa 963d bba7 1d3f 9b74 dbbe
00000040: cf81 c1bc f41b 12bf 26ac 153f 79dc 363d
00000050: d884 3a3e 8e81 0e3e 3da3 ecbd 355f 653e
00000060: 33ba 153f 60a6 123f f35b 30bf ed58 1f3e
00000070: 8e0d e23e ddc3 ac3d 2891 103f 98ab 71be
-0.4697831 0.42523837 0.48431754 -0.20931946 0.106176965 0.13376473 -0.45342645 -0.221341
0.32409015 -0.78307426 -0.4237755 0.3391352 -0.37738 0.07372029 0.6158406 -0.428624
-0.023621468 -0.57073903 0.584658 0.044643853 0.18214738 0.13916609 -0.11554573 0.223996
0.5848724 0.5728512 -0.68890303 0.15561266 0.44150966 0.084357955 0.5647149 -0.23600614

StatefulPartitionedCall/naturepapereyemodel/dense_4/BiasAdd/ReadVariableOp:0 f4 [4]
00000000: 6f22 cfbd 1884 05be 5d79 04be 98e4 c9bd
-0.101139896 -0.13038671 -0.12936921 -0.09858054

StatefulPartitionedCall/naturepapereyemodel/dense_3/MatMul/ReadVariableOp:0 f4 [4112, 8]
00000000: c7a3 94bd ddbe c1bd ee01 48bd 62c4 5abd
00000010: 09cb e0bd 450a cdbd ac21 7abd dc2e b3bd
00000020: 8a28 e8bd 8d1f babd 60ed f3bd 5510 6b3d
00000030: d1ed c1bd b00d 9cbd fffe 96bd df16 84bd
00000040: e330 ffbd a69a 88bd f530 b6bc f002 b8bd
00000050: e026 e5bd 4c20 033e 33dc 97bd 6533 72bd
00000060: 1aa3 b8bd d2d5 85bd 666b 5ebd 508e 263c
00000070: 0904 77bd 89c8 d5bd 8092 3dbd 57eb 6dbd
00000080: a64c 99bd 53f3 04be 0eec f1bd fe53 463c
00000090: 0c5c dbbd a9a2 f5bd 2b9d ddbd a663 c8bd
000000a0: b605 d63c 815a 04be 0d31 14be 1cd4 5bbc
000000b0: 96fd 19bc 7e16 bd3c 17a2 8bbd 2a28 00bd
000000c0: b398 b3bd 50c5 7bbd f91f 21bd 3416 b53c
000000d0: cd1d 8b3d 2f26 96bd 27c5 81bd 6522 103d
000000e0: 0a7b e1bd 83b0 c6bd d59c a8bd 1b57 a5bc
000000f0: 77f1 c2bd 5f73 c8bd b665 b0bd d786 99bd
00000100: 0578 87bd a9c3 02be 589a 0bbe cec5 8ebd
00000110: 3c81 81bd f44d 9ebd 3586 80bd 2a40 9fbd
00000120: 7c79 a5bd a0c4 84bd 10c3 aabd e9f2 c9bc
00000130: e417 07be 0191 b9bd c57f 34bd 630e a9bd
00000140: 62d2 04be dce6 cbbd c338 64bd 7b97 a1bd
00000150: 8aca 08be 503e cc3d 8f70 a2bd c5fd ccbd
00000160: 1786 efbd d269 a4bd 5c74 adbd dfa2 f2bd
00000170: 4a8f f3bd 9fad e33d ecff 0cbd f982 a6bd
00000180: ab75 d4bd 4d66 b3bd 4f5d 0dbd a889 ecbd
00000190: b76e 9dbd 7082 03be 2b46 8abd 643a 9fbd
000001a0: b23c f5bd 0a4d 10bd dcf1 e9bc 0272 66bd
000001b0: 5221 fdbd 3169 05be c8c7 55bd c71d 03be
000001c0: 782d afbd c9c2 4cbd fbf0 fdbd 8d99 a5bd
000001d0: 02e7 70bd cf08 05be 0987 b6bd 2c5f a8bd
000001e0: c72e f43d 1fec eebd a0e1 18be 2f50 40bd
000001f0: e3be e8bd 2096 ca3b 9379 a4bd 96ff b8bc
00000200: e809 91bd f0cc 72bd ed44 28bd 4dfb dfbd
00000210: 688d 7ebd 19cf de3d fe04 a0bd 120a a3bd
00000220: d9ba d2bd 3da7 12be 02ab dfbd dd6a 3abc
00000230: ccd9 abbd f5ad f3bd 3959 55bd 636f d8bd
00000240: 8e29 74bd e9cc b2bd 40b6 27bd 6b82 1b3d
00000250: 40cd 81bd 9fcd 07be be47 e63d 8088 ae3b
00000260: 701e bebd b3f8 c4bd a9ec 8ebd dcaa c3bd
00000270: 0cd4 fabd bd84 03be 6923 31bd 492e 77bd
00000280: e03b a3bd 4176 dfbd 7519 94bd 3f4a b9bd
00000290: 1e45 debd 3394 ec3d d21b e73c 7415 8fbd
000002a0: 4b65 a7bd 28ac 85bd 6c5e 19bd a25e dabd
000002b0: b8e2 afbd 466d 02be 01f0 adbd 4e35 cdbd
000002c0: fbb1 fcbd ba3c cbbd 8098 4dbd 2eac 7cbd
000002d0: 429c c8bd 2fa9 d5bd 9ee4 d4bd 0bf9 7dbd
000002e0: fa7a ddbd bfd6 10be f28e b9bd 2e07 e93c
000002f0: 2487 efbd ed53 aabd 1396 bdbd 9479 8bbd
00000300: 6d8c 95bd cc33 56bd 1652 79bd cb7b c0bd
00000310: 9420 a7bd 3217 7abd b06c 24bd fafb febd
00000320: ec33 7abd 0ca3 b7bd b16e d4bd 27f7 203d
00000330: af9f d2bd 7439 babd 7d91 48bc eac5 ebbd
00000340: e7e4 98bd 90d4 cfbd 3eef c9bd 3540 90bd
00000350: de25 05be 0db3 ee3d 7795 c8bd 0e87 02be
00000360: 8f30 c6bd d9a9 a0bd f62e d8bd 4fad fcbd
00000370: 4721 efbd f001 863d 9ec6 bcbd b443 7fbd
00000380: cfa6 9fbd 3966 12be 11ab 00be fc4a 19ba
00000390: b12d 06be 0319 e9bd d17d eebd 6b2e b0bd
000003a0: 4843 02be 7b67 98bd 1c1c eabd 7431 34bc
000003b0: 809e fb3d e8e5 e5bd 9bf9 7cbd 5e10 d63c
000003c0: 877c c5bd e550 b6bd 6df3 bebd 0180 66bc
000003d0: 712d 01be 3e23 8abd 5945 b0bd 00e6 99bd
000003e0: 7e21 e5bd 73e3 84bd c006 b3bd 6a40 86bd
000003f0: 1315 8ebd a552 87bd 91e0 8abd 2b0a d8bd
-0.072578005 -0.094602324 -0.048829965 -0.05340994 -0.10976226 -0.100117244 -0.06106727 -0.08749172
-0.11335857 -0.09088049 -0.1191051 0.057388622 -0.09469188 -0.07619798 -0.073728554 -0.06449675
-0.12460496 -0.06670122 -0.022240141 -0.08984935 -0.111890554 0.12805289 -0.074150465 -0.059131045
-0.09015484 -0.065349236 -0.054301642 0.010165766 -0.060306583 -0.1043864 -0.04628229 -0.058085766
-0.07485323 -0.12983446 -0.11812602 0.012104986 -0.10710916 -0.119939156 -0.10820993 -0.097846314
0.02612577 -0.1292515 -0.14471836 -0.01341727 -0.0093988385 0.023082014 -0.068180256 -0.031288303
-0.087693594 -0.06146747 -0.039337132 0.022105314 0.067927934 -0.07331502 -0.06336432 0.03518905
-0.11009796 -0.09701636 -0.08233038 -0.020183137 -0.09518712 -0.0978763 -0.0861315 -0.07496422
-0.06614689 -0.12769951 -0.13633096 -0.06971322 -0.063234776 -0.07729712 -0.06275598 -0.0777591
-0.08079812 -0.06482816 -0.083379865 -0.024651961 -0.13192707 -0.090608604 -0.044067163 -0.08254697
-0.1297088 -0.09956142 -0.055718195 -0.07890221 -0.13358513 0.09972823 -0.07931625 -0.1000934
-0.116954975 -0.08027996 -0.084694594 -0.118474714 -0.118925646 0.111171 -0.034423754 -0.0813045
-0.10374006 -0.08759747 -0.034512814 -0.11549693 -0.07687133 -0.12842727 -0.06751665 -0.07774809
-0.11974467 -0.03522972 -0.02855771 -0.05626107 -0.12359871 -0.13028409 -0.05219248 -0.12804328
-0.08553594 -0.04999045 -0.12399479 -0.08085928 -0.058814056 -0.12991641 -0.08912475 -0.082212776
0.119229846 -0.1166613 -0.14929819 -0.04695147 -0.11364534 0.006182447 -0.08031001 -0.02258281
-0.070819676 -0.059277475 -0.041081358 -0.10936604 -0.062146574 0.108793445 -0.07813452 -0.07960905
-0.102895446 -0.14321609 -0.10921289 -0.011378017 -0.08391151 -0.11898414 -0.052087042 -0.1056812
-0.059609942 -0.0873049 -0.04094529 0.037966173 -0.063379765 -0.13262032 0.112441525 0.0053263307
-0.09283149 -0.09617748 -0.06978733 -0.09554073 -0.12247476 -0.12843604 -0.04324666 -0.060346875
-0.079704046 -0.10911227 -0.07231418 -0.090473644 -0.10853027 0.11551704 0.028211508 -0.06986514
-0.08173617 -0.06526977 -0.037443563 -0.10662581 -0.08588165 -0.12736997 -0.08493043 -0.10019933
-0.123386346 -0.09923692 -0.050194263 -0.06168764 -0.09795429 -0.1043266 -0.10395168 -0.062005084
-0.108144715 -0.14144419 -0.09060468 0.028445806 -0.11695698 -0.08316789 -0.0925714 -0.068102986
-0.07302175 -0.05229549 -0.0608693 -0.09398612 -0.08160511 -0.061057277 -0.040142715 -0.124504045
-0.061084673 -0.089666456 -0.10372675 0.039298203 -0.102843635 -0.090929896 -0.012241718 -0.115123585
-0.07465535 -0.10147965 -0.09860085 -0.070434965 -0.13002726 0.11655245 -0.09794133 -0.12746832
-0.096772306 -0.07844896 -0.10555832 -0.123377435 -0.11676269 0.06543338 -0.09217571 -0.062320426
-0.07795488 -0.14296807 -0.12565257 -0.00058476604 -0.13103367 -0.11381724 -0.11645091 -0.086026035
-0.12720978 -0.07441612 -0.11431143 -0.010998119 0.12286091 -0.11225492 -0.06176148 0.026130851
-0.09642892 -0.08902148 -0.093237735 -0.014068604 -0.12614991 -0.06745003 -0.08606977 -0.07514572
-0.11188029 -0.06488695 -0.08741522 -0.06555255 -0.06937613 -0.0660756 -0.06781114 -0.105488144

StatefulPartitionedCall/naturepapereyemodel/dense_3/BiasAdd/ReadVariableOp:0 f4 [8]
00000000: 72c9 c4bd 73ab b6bd 7fc0 c0bd 62c2 17bd
00000010: fdc8 c4bd cac5 c4bd 83bd 92bd 1cc8 c4bd
-0.09608735 -0.0891942 -0.09411716 -0.037050612 -0.09608648 -0.09608038 -0.07165053 -0.0960848

StatefulPartitionedCall/naturepapereyemodel/dense_2/MatMul/ReadVariableOp:0 f4 [16, 16]
00000000: ee0d 5e3e 9cdb 12be 0615 27be 76ac aebe
00000010: 3f40 8b3e 1a8e 6e3e 0c24 353d de14 dabe
00000020: 2f1b 943e b80a 44bd 5703 c73e 1593 c93d
00000030: 6a31 6abe 803e 283c e812 21be 0b70 873e
00000040: a80d 14be f584 d63e 871a cb3e 029b e63e
00000050: f942 cf3e ae11 563e f00d b23c e763 cd3e
00000060: e0a0 13bc d049 1bbe 6001 9fbc 03d1 cd3e
00000070: 88e8 79bd fc32 3f3e 49bf 71be e7d6 ad3e
00000080: 27c7 a73e 5b43 96be 54ab 2bbe 98f7 7cbe
00000090: 6f47 823e 4a24 303e 7cde 593e dbc9 03be
000000a0: 335e 9e3e beba 4439 b1ad c83e c99d ff3d
000000b0: 30ff b23e a2e1 0b3e 1555 d43d 7c95 c9bd
000000c0: 50f5 67bd 93d9 cfbe 1056 73bd 1a52 733e
000000d0: 845c 0ebe 0ceb b23d 95ad 57be 498d c0be
000000e0: 6e92 31be 00eb fbba 3768 c1be 46f0 163e
000000f0: 2c78 973d 3ce5 ccbe a195 51be 5e22 263e
00000100: 1fff 983e fa70 73be b334 a3be 68be 663d
00000110: d1ef c4be 73f3 a9bd d4d3 b03e ecee 98bd
00000120: 6223 d0bc 9233 d0bc 1ca3 09be c228 2d3e
00000130: 28ca 87bd 7825 d4be a5ba 8b3d 1442 e6bd
00000140: e81e a8be 6049 9b3c c4d9 d93d 9697 2fbe
00000150: e01f cb3c fa5b 793e 78d1 61bd bc8f 983d
00000160: e09c cabc 70af 6b3d 50b8 cfbc 3c73 3abe
00000170: 19f1 c13e 8065 03bd 4376 833e f1ec bbbe
00000180: 1832 9bbe e9f5 9b3e 985e 61bc 91cc a5be
00000190: b0bb e0bd 54de 06bc 0f0c a7bd 6460 b53d
000001a0: 67e6 63be fc13 90be 5837 2dbe 76d8 cb3d
000001b0: b228 bdbe 71bd 96be c850 bdbe 43be 9abe
000001c0: a792 833e 0872 3b3d b005 82bd deda d8be
000001d0: 03ed d0be 1761 ca3e 49a2 c33e 1929 b13e
000001e0: ecbe 65be 6f3d 9ebe 8b34 b53e 9dfd 9cbe
000001f0: 9942 d13e eb21 c4be a068 99bd 6a0a 1a3e
00000200: a489 cfbe 7192 5e3e a6dd ab3e b27b 2a3e
00000210: 849e bdbd 22ca 823e c22e dd3c 8008 a4be
00000220: 049c f5be d6ef 88be 585d 34bd a5ff 353e
00000230: 9598 523e 0040 f4b7 e8ad c43c 7017 debd
00000240: 55ac 65be e7c4 e93e 4a6d 603e 6a86 9cbe
00000250: 1ec9 013e 9422 ca3d 5ca9 6fbe 81b8 37be
00000260: b372 a03d b522 963e af6e aabe 949a acbe
00000270: 5779 3b3d 5645 263e 684c 9a3e 2a77 533e
00000280: 3970 a43e c6f4 32be c39c b03e 5f00 a23e
00000290: a906 8a3e 4251 4b3e 19c7 db3e 43d2 a23e
000002a0: 6030 12bc 006c 8539 6977 9d3e c818 613d
000002b0: 7446 acbe d800 29be c571 ba3e 4211 7f3e
000002c0: 4409 ca3d 3957 673b 4c64 a1be 9db4 a7be
000002d0: caec d7be 622d 33be f977 ef3d 06c0 143e
000002e0: c571 133e 43bb 2abe 5822 7fbd 06fa 6dbe
000002f0: d674 ee3e 7a2e 3fbe 8e75 ec3d ce86 5e3e
00000300: a66f 86be 958c 423e 8096 bdbd 3299 683e
00000310: 554c 69be 8a06 4c3e 25ab 14be 17eb 08be
00000320: bc8c 413e c038 2f3e f828 0dbd 1033 053f
00000330: 77d6 923e 51d5 873e c799 e6be 7aac b1be
00000340: 62fe 3bbe e8ac a8be 2002 28be 823e 27be
00000350: 80b6 96bc 62fc 693e 59ab a33e 0614 753e
00000360: 84dd afbd 6107 b43e 52df 27be 06b1 43be
00000370: 38c7 2fbe 3459 c4bd e2fa 7e3e f4b4 a7be
00000380: 10a5 ec3c 4cf0 b7bd 86ca d1be 930c 9e3e
00000390: 6ece 92be be69 6e3e 5059 00bd 092f 8f3e
000003a0: 2467 9dbd 0020 bd39 7cc5 d13d ce4c 613e
000003b0: d0fc 98bd 980b 503d f81f bdbd 37ed 6dbe
000003c0: 3ccb 8d3d 7869 5b3e 788d b5bc d412 8dbd
000003d0: 0c9a c13d f14a bbbe 52e7 593e 85b7 1d3e
000003e0: e927 ccbe f7a7 853c 784e c9bd b118 1abd
000003f0: c088 54be 6dec abbe aeb1 a13d ac13 953d
0.21685001 -0.14341587 -0.16316614 -0.34115952 0.27197453 0.23296395 0.04422383 -0.42594045
0.2892699 -0.047861785 0.38869736 0.09842507 -0.22870412 0.010268807 -0.15729868 0.2645267
-0.14458334 0.41898313 0.39668676 0.45040137 0.40480784 0.20905182 0.021735162 0.40115282
-0.009010524 -0.15164876 -0.019409835 0.40198526 -0.061012775 0.18671793 -0.23608126 0.3395302
0.3276913 -0.29348263 -0.16764575 -0.24703825 0.25445125 0.17201343 0.21276277 -0.1286997
0.30931243 0.00018761583 0.39195016 0.12481267 0.34960318 0.13660291 0.103677906 -0.09842965
-0.056630433 -0.40595683 -0.059408247 0.23761788 -0.1390248 0.08736238 -0.2106231 -0.37607792
-0.17341015 -0.0019219816 -0.37774822 0.14740095 0.07395968 -0.40018642 -0.20467235 0.16224048
0.29882142 -0.23773566 -0.31876144 0.05633393 -0.38464215 -0.082983874 0.34536612 -0.07467446
-0.025407497 -0.025415216 -0.13441128 0.16910079 -0.06630355 -0.41434836 0.06822709 -0.11243072
-0.3283608 0.018955886 0.106372386 -0.17147669 0.024795473 0.24351493 -0.055131406 0.0744929
-0.024733007 0.057540357 -0.025356442 -0.18208021 0.37879255 -0.03207922 0.25676164 -0.3670421
-0.30311656 0.30461052 -0.013755463 -0.32382634 -0.109732985 -0.008231718 -0.08156597 0.08856276
-0.2225586 -0.28140247 -0.16915643 0.09953396 -0.3694511 -0.29441407 -0.36975694 -0.30223283
0.25697824 0.045763046 -0.06348741 -0.42354482 -0.40805826 0.395272 0.3820975 0.34601668
-0.22436112 -0.30906245 0.3539165 -0.30662242 0.40871122 -0.38307127 -0.07490659 0.15043035
-0.405347 0.2173555 0.33567542 0.16648749 -0.0925875 0.2554484 0.026999835 -0.32037735
-0.47970593 -0.2674548 -0.044034332 0.17773302 0.20566018 -2.9116869e-05 0.024008706 -0.10844314
-0.2242902 0.45658037 0.2191669 -0.305713 0.12674376 0.098698765 -0.23404449 -0.17941476
0.07834377 0.29323354 -0.3328757 -0.33711684 0.045770016 0.16237387 0.30136418 0.20650926
0.3211687 -0.17476186 0.344946 0.31640908 0.26958206 0.19855216 0.42925337 0.31801042
-0.008922666 0.00025448203 0.30755165 0.054955274 -0.336475 -0.16504228 0.36414924 0.24908927
0.098650485 0.0035299791 -0.31521833 -0.32754984 -0.42172843 -0.17497781 0.11692805 0.14526376
0.14398868 -0.16672997 -0.062288612 -0.23239908 0.46573514 -0.18670073 0.11545859 0.21731111
-0.26257056 0.1899894 -0.09257221 0.2271469 -0.22783025 0.1992437 -0.14518411 -0.1337093
0.18901342 0.17111492 -0.0344629 0.5203104 0.2867925 0.26529935 -0.45039198 -0.34701902
-0.18358758 -0.32944417 -0.1640706 -0.16332439 -0.01839757 0.22850183 0.31966665 0.2393342
-0.085871726 0.3516188 -0.16393784 -0.19110498 -0.1716584 -0.09587327 0.24900392 -0.32755244
0.028887302 -0.0898138 -0.40974826 0.30868968 -0.28673118 0.23282525 -0.031335175 0.27965572
-0.07685688 0.0003607273 0.10242745 0.22001955 -0.07470095 0.050792307 -0.09234613 -0.23235022
0.069235295 0.21426952 -0.022162184 -0.06888357 0.0945321 -0.36580613 0.21279648 0.15402038
-0.398742 0.016315443 -0.0982942 -0.037621204 -0.20755291 -0.33578816 0.07895218 0.07279143

StatefulPartitionedCall/naturepapereyemodel/dense_2/BiasAdd/ReadVariableOp:0 f4 [16]
00000000: 0000 0000 21a6 a1bd 3645 c4bd 1dbe a93d
00000010: 27b5 a93d 3929 4ebd 54f6 99bd 98be c4bd
00000020: 15c0 c4bd 23c2 c4bd 0000 0000 f379 7ebd
00000030: 2f96 8dbd a55a 7abd 4c24 e2bd 01c8 a93d
0.0 -0.07893015 -0.095835134 0.08288214 0.08286505 -0.05033228 -0.075176865 -0.096066654
-0.09606949 -0.09607341 0.0 -0.06212802 -0.06913411 -0.0611216 -0.11042079 0.08290101

StatefulPartitionedCall/naturepapereyemodel/dense_1/MatMul/ReadVariableOp:0 f4 [128, 16]
00000000: a1c1 18be 5832 383e 2705 1c3d c225 153e
00000010: 2b1c c53d 801b 77bc 80ad fbbd 4033 e73d
00000020: 10d3 6bbe 80c7 10be 8bcc fbbd f993 d43c
00000030: 75c5 853d 846b 39be acda 473e 649c e137
00000040: 3109 1bbe 404b d7bc db37 843d e582 17be
00000050: a5bc 03be 9c78 0f3e a4c3 043e b0c6 8abc
00000060: 2444 213d e3df 523d 6a5c 323e 9314 383d
00000070: f929 73bd 9300 44be a3fc 3dbe 5200 7dbe
00000080: bbb8 13be fcfb 10be c876 40bd f8d3 b43d
00000090: 24f3 7dbd 684f 043e 187a d7bc 8048 a83c
000000a0: 684c b13d 50b4 b13d a996 35be a3f5 a4bd
000000b0: f413 e63d 1064 a63d 002e 0a3d dcb4 fc3d
000000c0: 98ec 20bd b25f 173e 400a 1fbd e060 82bd
000000d0: acba 0dbe 551a 37be 7ce8 b13d 4a5c 4e3e
000000e0: 0073 77bb 547c 39bd f822 25be c858 17be
000000f0: 308f 1c3c 941d 30be d8cc df3c c068 793d
00000100: aaa1 83be bc1c 603d b48e f5bc a2c0 b0bd
00000110: e729 27bd 54ea 02be bdd8 24bc 601d 9b3d
00000120: b661 da3c bf3a 81bd 6cd9 803d a4aa af3d
00000130: a46b 06be 1410 24bd 14fc 7dbd bf86 e33d
00000140: 4b21 d4bd 2849 7b3d 4081 433e 5496 b33d
00000150: 983e b7bc 5040 5b3d 32cb 4d3e 0c3a 20be
00000160: 9094 cf3c 50b1 53bc 81ff 03be b4d3 47bd
00000170: ffc8 45be 981a bb3d 209b 35be d012 b73c
00000180: 1e62 13be fad0 2b3e 7488 003d 8842 70bd
00000190: 00c8 0e39 f0db dd3d 7059 2a3e f638 1cbe
000001a0: 7b25 32be b38a 38be c050 163b cec9 3b3e
000001b0: b2d0 143e b449 353e 34c8 51bd 4d47 45be
000001c0: b947 8bbe 9c78 3b3e 1e7f dcba 38df b8bc
000001d0: 74ae 28bd 2eaf 223e b8f1 973b 7c67 0dbd
000001e0: 2a8a a43d d353 56bd ed25 0abe 325a 14be
000001f0: 4cb8 30be 705b 0d3e 98a8 8c3d 1eaf 7d3d
00000200: cca8 f83b b527 653e 1f94 20be 1489 17bd
00000210: 7125 a7bd 26d5 50be 9daa c03d 3ab5 4c3e
00000220: 7037 91bd 2d28 04be 8c4c b83d 98b2 36be
00000230: 8abb 0e3d c818 943c 0c7a 33bd 578b e93d
00000240: 9182 11be 6092 023e 8028 ce3c 13ab 1ebe
00000250: 48f0 423d 6458 2b3e b073 0bbd 1888 f8bd
00000260: 8430 aabd 240b e8bd 0479 39bd 23bd 3ebe
00000270: 3cfa 3ebd e876 fcbc 9cf4 0cbd 9eec 4ebe
00000280: c098 803b 4933 dcbd e07e 313c 0ef6 46be
00000290: 47b5 b1bd 84fa 363d b093 90bd 0ea0 093e
000002a0: be44 43be 056d b9bd d357 20be 7b35 40be
000002b0: f855 663d 6c2e 103e 1e6e 47be 6f2d 2cbe
000002c0: 14b6 493e 6465 c3bd e81e 16bd 348f fb3d
000002d0: 1e1d 48be b4b6 073d 1164 4bbe a3a6 cabd
000002e0: e881 4bbe 10fe 803d c0d6 643b d0ba 6e3d
000002f0: bcbb 9f3d 545c f2bd eee6 373e 1938 44be
00000300: b0f4 64be 42fd 1e3e b5b2 88be 6054 583d
00000310: 9bac 14be aeec 01be e0aa d4bd ec1a 49bd
00000320: a361 443d c7cf c73d 6cd1 223e 9b3b 05be
00000330: f761 a73d e81d 943c 7094 1c3e 2a31 3d3c
00000340: 72d0 49be 75b0 b2bc c2b3 55be 743d 8b3d
00000350: ca8e 19be 8095 bebd 25c6 4e3d d604 2d3e
00000360: a5c6 2fbe d02c 303d 0a5d 203e 4d9b 863c
00000370: bad3 49bd bc04 a63d 78b7 0e3d 32ac c3bd
00000380: f824 613d 84b0 2dbe 5067 7dbd 34ef ef3d
00000390: 56a4 84bd 0c84 02be 9650 473e 5bce bcbd
000003a0: 80c1 663b 72a1 cfbd 889f dc3c 64b5 78bd
000003b0: ed0f 50be b25a 17be 4f07 f2bd 1b76 02be
000003c0: 4d2d 56bc d86b 28be 2963 ffbd be2d 3a3e
000003d0: f70a 8b3d 0097 37be a0e0 d23d a66e 043e
000003e0: 3519 a93d c6f8 073d fc0a 193d 70db a43c
000003f0: c382 7abe eeed 123e 141f 14bd b187 db3d
-0.14917614 0.17987955 0.03809085 0.14565185 0.09624513 -0.01508224 -0.12288952 0.11289072
-0.23029733 -0.14138603 -0.12294873 0.025949465 0.065318026 -0.1810742 0.1951701 2.6894915e-05
-0.15140225 -0.026281 0.06455966 -0.14796026 -0.12864931 0.14010853 0.12965256 -0.016940445
0.039371625 0.051483046 0.17418066 0.044941496 -0.0593662 -0.19140844 -0.18553405 -0.24707153
-0.14425938 -0.14158624 -0.04698828 0.08829492 -0.061999455 0.12920916 -0.026303336 0.020542383
0.086571515 0.0867697 -0.17733254 -0.08054664 0.112342745 0.08124554 0.033735275 0.12339184
-0.039288133 0.14782599 -0.038828135 -0.06366134 -0.13840741 -0.17881139 0.08686921 0.20152393
-0.0037757754 -0.045284584 -0.16126621 -0.14779961 0.009555623 -0.17198783 0.027319357 0.060890913
-0.25709277 0.054714903 -0.029975273 -0.08630492 -0.040811446 -0.12784702 -0.01006144 0.07573962
0.02665792 -0.06310033 0.0629147 0.08577469 -0.13126999 -0.040054396 -0.06200798 0.11109685
-0.10357913 0.061349064 0.19092274 0.08768907 -0.022368714 0.05352813 0.20097044 -0.15647143
0.025339395 -0.012920693 -0.12890436 -0.04878588 -0.19314955 0.09135932 -0.17734957 0.022347838
-0.14392897 0.16778937 0.03138013 -0.0586572 0.00013616681 0.108329654 0.1663568 -0.15256104
-0.1739711 -0.1802166 0.0022936314 0.18338701 0.14532736 0.17703897 -0.05121632 -0.1926548
-0.27203158 0.18307728 -0.0016822552 -0.022567376 -0.041181996 0.15887138 0.0046369694 -0.03452252
0.08034165 -0.052326035 -0.1349103 -0.14487532 -0.17257804 0.13804412 0.06868094 0.061934583
0.0075884815 0.22378428 -0.15681504 -0.036995962 -0.08161438 -0.2039381 0.09407542 0.19991007
-0.07090652 -0.12905951 0.08998975 -0.17841566 0.03484682 0.018078223 -0.043817565 0.1140353
-0.14209963 0.1275115 0.025165796 -0.15494947 0.04759243 0.16732937 -0.034045875 -0.12135333
-0.08310035 -0.1133025 -0.045281425 -0.18626837 -0.04662536 -0.030818418 -0.034412965 -0.2020745
0.003924459 -0.10751969 0.010833472 -0.194298 -0.08677154 0.044672504 -0.07059419 0.13439962
-0.19069192 -0.09053997 -0.15658502 -0.18770401 0.05623433 0.14080209 -0.194756 -0.16814207
0.19698364 -0.09540823 -0.03665057 0.12283173 -0.19542357 0.033133224 -0.19862391 -0.09895065
-0.19873774 0.062984586 0.003491804 0.058283627 0.07799479 -0.118340164 0.17959186 -0.19162025
-0.22358966 0.15526298 -0.26698843 0.05281484 -0.14518969 -0.12687942 -0.10384154 -0.04909794
0.047944676 0.09756427 0.159002 -0.13011019 0.08172982 0.018080667 0.15291 0.011547366
-0.19708422 -0.021812657 -0.20869353 0.06798831 -0.14995876 -0.093058586 0.050481934 0.16896376
-0.1716562 0.043011487 0.15660492 0.016431475 -0.049274184 0.08106372 0.03484294 -0.09554328
0.054966897 -0.16961867 -0.061866105 0.11715546 -0.06476657 -0.12745684 0.19464335 -0.09219047
0.003521055 -0.10138215 0.02693154 -0.060719863 -0.20318575 -0.14780691 -0.118178 -0.12740366
-0.013072324 -0.16447389 -0.12470085 0.18181512 0.06789201 -0.17928696 0.1029675 0.12932834
0.08256761 0.033196233 0.03736399 0.020124167 -0.24463944 0.14348575 -0.03616245 0.107192405

StatefulPartitionedCall/naturepapereyemodel/dense_1/BiasAdd/ReadVariableOp:0 f4 [16]
00000000: 201f b6bd 15bd a93d 29b3 c4bd 0000 0000
00000010: b3f1 8bbd 0000 0000 513d 9ebd 0000 0000
00000020: b249 97bd 2dc3 c4bd 0000 0000 11ad c4bd
00000030: 897f c4bd 0000 0000 0000 0000 b458 93bd
-0.088926554 0.08288018 -0.096044846 0.0 -0.0683321 0.0 -0.07726539 0.0
-0.07387103 -0.09607539 0.0 -0.09603322 -0.09594638 0.0 0.0 -0.07194653

StatefulPartitionedCall/naturepapereyemodel/dense/MatMul/ReadVariableOp:0 f4 [8, 128]
00000000: c6e9 023b 8047 0bbd 0466 bbbd 4a64 a8bd
00000010: 81de f83c dd19 023e 6899 983c 76f4 cd3d
00000020: 8e24 873d 2e8b 48be 76ce c9bd 1afa 14be
00000030: 6c89 02be 1637 84bd a65e 833d d12f 1fbc
00000040: e190 873d a06c 003c 5b87 33be bfb2 233c
00000050: eef9 c5bd 1a17 ee3d 7362 103e eda7 b4bd
00000060: 7847 6a3e 5e2c b8bd 9348 53be 309f d1bd
00000070: ea2b e33d 14f0 233d 81d2 853e 2c0c 3bbe
00000080: 1880 863c 40f9 dcbc bfcf 1ebe 9d71 3dbe
00000090: 961e 773e 0092 e63c 5048 6abe c0d1 5e3e
000000a0: 00f1 4c3d be70 08be 64e7 2d3d 56f8 913d
000000b0: e082 4cbc 8241 cc3d 3ce0 34be 2055 acbd
000000c0: 099f 523e ca48 09be 1e92 e03d 4072 7bbb
000000d0: 590a 55bc c8d8 05be 9561 5ebe 8ee2 5a3d
000000e0: 961e 843d 6241 1a3e 7e4a 29be 5e39 103e
000000f0: 2846 18be f801 bcbc d65a 443e 1c07 14be
00000100: 6ef3 78be 7178 89bd 467a 093e a25e 60be
00000110: 66f3 49be dff6 a83d 24b4 efbd f79a 373e
00000120: ce4d 083d 0ad2 29be 86e8 8a3e 3b7a 833e
00000130: 148e 3b3e 1984 98bd c9b5 5a3e a033 c7bd
00000140: a3fb 45be b667 da3d 2017 df3d a23f 41be
00000150: 6815 28be 519a 8abe e919 d43d 7e0e e43d
00000160: 6ac8 923d c244 78bc be8b d3bd 75ab 653d
00000170: 7665 b2bd e260 2f3e a99c 3fbe 4f0a c7bd
00000180: dcd8 03bd ed69 8c3e b158 913c 3638 94bd
00000190: ae8f 4c3c 47b5 1c3e 91ac 1bbd bf2f 0e3e
000001a0: 2712 3a3e ab18 813d f18d d3bd 1a6e 7dbe
000001b0: 29ab bb3c 049b 9d3d 0872 c0bd d851 4dbe
000001c0: 03ed 953d 273d c9bc 5903 12be 1518 f73d
000001d0: 4cdd 663d 30a7 32bc 22e4 d33d ab08 dfbd
000001e0: 2080 73bc 960a 463e e0e1 913b efa9 013e
000001f0: 35ee 3f3e 41b2 533d ca9c 643e 1a15 37be
00000200: 9f7a 0b3e 4fde 40be 6443 673d 9191 213e
00000210: 6cbe a2bd 04a2 04be a02f c63b 9e39 8dbe
00000220: c23e 7abe 97fe 4d3e a599 493e 8c95 56be
00000230: 73da f5bc e812 543e d427 58bd d8f7 a6bd
00000240: 9819 06bc 402c 32bd 2ef0 353d 7eed 463d
00000250: 6681 da3d e16f a7bd 92d8 85bd 8b76 fcbd
00000260: 783d 7a3e 057b 7b3e 9831 a1bc c0fc 093b
00000270: 1123 2c3e 00a0 da3c e88b 263e 5a76 30be
00000280: 9e79 f6bd 6d26 51be 6068 8d3b 20b6 bdbd
00000290: 0f90 cfbd b3be 3fbe a4e5 72bd a592 103e
000002a0: 3426 343d 25da 2f3e 79a7 433e 16fe f3bd
000002b0: 24a2 91bd 685d a9bc 9058 69bc 5e59 1d3d
000002c0: f4d6 1cbd 0ec0 d53d 86bb 1ebd 12d5 b73d
000002d0: 5b49 92bd 404e 8f3c 2cc6 81be 14a6 543e
000002e0: b686 85be cd19 c33d 5e95 c13d 899b 00bb
000002f0: 9e3b 1fbe 5a34 c1bd 72a5 3f3e cf81 afbd
00000300: 2be9 833c 3bcb 0f3c 8ff8 573c 5f3c e4bd
00000310: a65e 82bd 18f0 663d 1833 193d 61ec 293c
00000320: 6a3c f23c 27a1 153c e85b b73d 2eb6 f13d
00000330: 2ae9 dabc ffb8 ebbd 0439 b6bb 6738 58be
00000340: 06ff 03be 008b 03be de4e 86bd 1730 c4bd
00000350: e667 b53d ee74 c73d 2248 4cbe 20ef 62bc
00000360: 0228 9c3d edd0 3dbe 57d9 fdbd c48f 22be
00000370: fa4d 31be d7b8 653e 10e6 a23c 246f c93d
00000380: 5cea 1d3d 7e40 99bc 7913 c23c 085e 363d
00000390: 193d c0bd 3239 2cbe 5dee fb3d 3268 593d
000003a0: 9099 3dbc f364 d53c f36a d7bd c66d 75be
000003b0: 084f 2fbb 47fc 043e e5aa 04be b02f 2ebc
000003c0: e6c6 58be 248e cd3d c6d8 d0bd 3956 07bd
000003d0: 2fba 1bbe 9c2d e1bd 80d3 8fbd b45f 4b3d
000003e0: c19a 873e fcef 3d3e a089 99bb e801 25be
000003f0: 92ce db3d 9a7c b23d d590 283d a682 0fbe
0.0019975766 -0.034003735 -0.09150317 -0.082222536 0.030379536 0.12705179 0.018627837 0.10056393
0.06598769 -0.19584343 -0.098538324 -0.14548531 -0.12747735 -0.06455819 0.06414537 -0.00971599
0.0661943 0.007838398 -0.17532103 0.009991347 -0.09666811 0.116255 0.14100055 -0.08821092
0.22878826 -0.08992837 -0.20633154 -0.10235441 0.1109236 0.04002388 0.26137164 -0.18266362
0.016418502 -0.02697432 -0.15508936 -0.18500371 0.24132761 0.02814579 -0.22879148 0.21759701
0.050034523 -0.13324258 0.042457 0.071274444 -0.012482375 0.09973432 -0.17663664 -0.08414674
0.2056848 -0.13406673 0.1096537 -0.003836766 -0.013002955 -0.13070977 -0.21716912 0.053438716
0.06451146 0.15064004 -0.16532323 0.14084384 -0.14870512 -0.022950158 0.19175276 -0.14455837
-0.24311611 -0.067124255 0.1342555 -0.219111 -0.19721755 0.08250212 -0.11704281 0.17930208
0.033277325 -0.1658403 0.27130526 0.25679192 0.18315917 -0.07447071 0.21358408 -0.097266436
-0.19334273 0.106643125 0.108930826 -0.1887193 -0.16414416 -0.2707086 0.103565045 0.11135577
0.07167132 -0.015153112 -0.10329388 0.056071717 -0.087107584 0.17126802 -0.18712105 -0.09718763
-0.032189235 0.27424565 0.017742487 -0.07237284 0.012485428 0.15303527 -0.03800637 0.13885401
0.18170987 0.06303533 -0.103298075 -0.24749032 0.022908764 0.076955825 -0.0939675 -0.20050752
0.07320597 -0.024565293 -0.1425909 0.1206514 0.05636339 -0.010904118 0.10346247 -0.10890325
-0.01486209 0.19339976 0.004451975 0.12662481 0.18743213 0.051683668 0.22325435 -0.17879143
0.13620995 -0.18834804 0.056460753 0.15778185 -0.07946476 -0.12952429 0.006048158 -0.2758302
-0.24438003 0.2011665 0.19687517 -0.20955485 -0.030011391 0.20710337 -0.052772358 -0.08152741
-0.008184813 -0.04349923 0.044418506 0.048566334 0.10669212 -0.08175636 -0.06535448 -0.12327298
0.24437511 0.24558647 -0.019676968 0.0021055192 0.16810252 0.026687622 0.16264307 -0.17232648
-0.120349154 -0.20424815 0.004315421 -0.09263253 -0.10134899 -0.1872509 -0.059301034 0.1411844
0.043981746 0.1717306 0.19106854 -0.119136974 -0.07111004 -0.020674422 -0.014242306 0.038415305
-0.038290933 0.10437022 -0.038753055 0.08976187 -0.07142898 0.017493367 -0.25346506 0.20766479
-0.2607934 0.095264055 0.09452318 -0.0019623956 -0.15550086 -0.094338134 0.18715456 -0.08569681
0.016102394 0.008776481 0.01318182 -0.11144327 -0.06365709 0.056381315 0.037402242 0.0103712985
0.029569823 0.00913266 0.089530766 0.11802326 -0.02672251 -0.115098946 -0.005560996 -0.21115266
-0.12890252 -0.12845993 -0.065580115 -0.09579485 0.08857708 0.097390994 -0.19949391 -0.013850957
0.076248184 -0.1853673 -0.1239497 -0.15875155 -0.17314902 0.22433792 0.019885093 0.098356515
0.03855358 -0.01870751 0.023690926 0.04452327 -0.093866535 -0.16818693 0.123013236 0.053077884
-0.011572257 0.026049113 -0.10518446 -0.23967656 -0.0026749987 0.12986861 -0.12955816 -0.010631487
-0.21169624 0.10036877 -0.10197596 -0.033041213 -0.15207742 -0.109950274 -0.07022762 0.049651816
0.26485255 0.18548578 -0.0046855956 -0.16114008 0.107327595 0.08715172 0.041153748 -0.14014682

StatefulPartitionedCall/naturepapereyemodel/dense/BiasAdd/ReadVariableOp:0 f4 [128]
00000000: bbbf a13d 7ab6 f8bd 0000 0000 0000 0000
00000010: c0d3 99bd 0000 0000 0000 0000 43e3 98bd
00000020: 44e0 95bd 0000 0000 0000 0000 0000 0000
00000030: 3783 dabd 78f4 863d 0000 0000 ed3a 99bd
00000040: c296 8dbd 0000 0000 0aaf c4bd 5c87 e7bd
00000050: 0000 0000 11a4 9fbd 0000 0000 90c6 9fbd
00000060: eb93 833d 3e46 853d 0000 0000 0000 0000
00000070: 0000 0000 0000 0000 0216 803d 0000 0000
00000080: 0000 0000 0000 0000 0000 0000 0000 0000
00000090: f4cd 953d 0000 0000 940c 99bd fe68 7f3d
000000a0: 1ad8 d03d 0000 0000 0000 0000 0000 0000
000000b0: 0000 0000 0000 0000 0000 0000 e5b8 9cbd
000000c0: 0000 0000 afef 99bd 0afe 95bd 0000 0000
000000d0: 15ed d9bd 10ed edbd 19a3 a5bd f3b8 493d
000000e0: bc73 8dbd 1a0f da3d 0000 0000 e217 e43d
000000f0: 0000 0000 0000 0000 389e a73d fca6 c4bd
00000100: 1d45 92bd 34a8 9abd a86b 96bd 1921 8ebd
00000110: 0000 0000 5e94 ecbd 0000 0000 d62b 273d
00000120: 0697 843d 2451 d8bd f888 a93d 468c 933d
00000130: ab7a b2bb f0c4 97bd afc6 903d 1996 91bd
00000140: 0000 0000 7080 8bbd 7bd7 98bd 8a2b c4bd
00000150: 0000 0000 e5f9 98bd 9f98 a4bd 0000 0000
00000160: 0000 0000 ec74 8ebd b43b eabd 8e5d 8fbd
00000170: 0000 0000 c0a6 dd3d 0000 0000 67aa 90bd
00000180: 0000 0000 0a3d 943d ebfa c8bd d4aa c4bd
00000190: 1051 9abd 0000 0000 6a21 9fbd 003d 6fbd
000001a0: 0000 0000 a5b3 953d 0000 0000 2db3 c4bd
000001b0: 40b0 a53d 846a d03d dbae 91bd 0000 0000
000001c0: af96 96bd a000 82bd 460f 89bd bf7f 97bd
000001d0: 0000 0000 0000 0000 0000 0000 0000 0000
000001e0: 70fc 803d 2595 833d 0000 0000 ff39 91bd
000001f0: 0000 0000 af54 91bd 6525 933d 0000 0000
0.07897898 -0.1214418 0.0 0.0 -0.07511091 0.0 0.0 -0.07465222
-0.07318166 0.0 0.0 0.0 -0.106695585 0.065895975 0.0 -0.07481942
-0.069135204 0.0 -0.096036986 -0.113051146 0.0 -0.07794965 0.0 -0.07801545
0.064246975 0.06507538 0.0 0.0 0.0 0.0 0.06254198 0.0
0.0 0.0 0.0 0.0 0.07314673 0.0 -0.07473102 0.062355988
0.10197468 0.0 0.0 0.0 0.0 0.0 0.0 -0.07652453
0.0 -0.07516419 -0.07323845 0.0 -0.10640923 -0.11617482 -0.08087749 0.049248647
-0.0690684 0.10647412 0.0 0.11137368 0.0 0.0 0.08184475 -0.09602162
-0.071420886 -0.075516135 -0.073447526 -0.069399066 0.0 -0.11551736 0.0 0.04081329
0.06474118 -0.10562351 0.08278078 0.072044894 -0.005446752 -0.0741061 0.07069146 -0.07108707
0.0 -0.06811607 -0.07462975 -0.09578617 0.0 -0.074695386 -0.08036923 0.0
0.0 -0.06955895 -0.11437169 -0.07000266 0.0 0.10822821 0.0 -0.07063752
0.0 0.07238205 -0.09813484 -0.096028954 -0.07534993 0.0 -0.07770045 -0.058407784
0.0 0.07309655 0.0 -0.096044876 0.08090258 0.10176566 -0.07113429 0.0
-0.07352959 -0.063477755 -0.06692366 -0.073974125 0.0 0.0 0.0 0.0
0.06298149 0.064249314 0.0 -0.0709114 0.0 -0.0709623 0.07184867 0.0

StatefulPartitionedCall/naturepapereyemodel/conv2d_2/Conv2D/ReadVariableOp:0 f4 [128, 64, 3, 3]
00000000: 516e adbd 486a 81bd a7ec d0bd 2fd3 15be
00000010: 534f a4bd 754d e2bd 1038 8b3c 6262 eb3d
00000020: af0e b63d f640 493d bffd 9cbc b2f9 8bbb
00000030: 1bdd 993d c44a ff3d 9488 8e3d 5474 ee3d
00000040: ff40 853d de43 35bc c7d9 a0bd 2376 d1bc
00000050: 2228 cfbd ac2e e4bc cc59 56bd 5a83 07be
00000060: 9dc3 a5bd 0803 29bd 3fe6 cfbd a9a3 ac3d
00000070: c391 b73d c551 d33c 20b9 b13d b156 ce3d
00000080: 438a e93d 8954 b7bd d98d 8fbd 3976 59bd
00000090: 8a9a 24be 3544 c6bd b1fe 32bd 62a5 9e3d
000000a0: b276 8d3d 0c07 b33c 0078 9e3d 8b58 d33c
000000b0: b482 813b f8a0 563c b4ee 733d 63b6 b33d
000000c0: abaf af3d a6e1 9d3d 4684 e33d 8de5 bebd
000000d0: 3666 74bd 8a4e 05bd 2855 c6bd 32c1 c2bd
000000e0: c7c4 12be a61a c1bd 3787 bbbd befc 50bd
000000f0: 77d7 ddbd ef16 0dbe 55e7 64be 4d3e 01be
00000100: f760 55bd 551a 03be 8544 0f3d 4562 c53d
00000110: cac6 933d 232a 743d 7454 c93c 329d 943d
00000120: c67b 1d3d a4a2 cb3d 3b48 6e3d cd28 963d
00000130: bfff 723d d92f b33d 99c7 f0bd fc85 10be
00000140: 7152 f6bd 7c4e c93d 69e0 943d de67 a53d
00000150: 6209 41bd 5652 a4bd a0e0 b3bd 867c c6bc
00000160: 9a40 12bd 2d34 8f3b bc84 793d 8002 233d
00000170: fa48 e63d dcfe 173d 4cf3 0c3e 99dc 02bd
00000180: 826f 30bd 4465 71bd a82a debd c587 c7bd
00000190: 623f dfbd 5b34 dbbd f409 aabd f20b ffbd
000001a0: 0afc d5bd a1f4 123e 2a20 983d 4cf6 cf3d
000001b0: f0e3 06be 26fe 13be 2f20 93bd cdbc d4bd
000001c0: b617 d2bd e48e 1fbe 4daa 29bd 3f76 793b
000001d0: 4140 3e3d 0690 b03d 9851 923d e741 1a3d
000001e0: e20c dfbd 1193 4cbd 199b 6f3d 0bf6 8ebd
000001f0: 3122 a6bd b290 3abe 94c4 04be 36cc c3bd
00000200: c949 81bd cf3c 04be c58f 4ebd a3a9 8a3a
00000210: d627 663d 2961 0d3e 0c4e 893d 5fc7 8cbd
00000220: afd2 93bb d6ad f3bd c548 f9bb 5796 da3d
00000230: aef4 e83c 23ec ad3d 941f 733d 1cc3 323d
00000240: 8f15 73bd 23a9 8abd 2707 b6bd 23b6 49bd
00000250: b9e1 a1bd 6083 a23d 6da1 9d3d 2399 2f3e
00000260: 8f59 183d 3125 7d3d f4d0 853d b9fd 833d
00000270: 45a7 8d3d b72c cb3d 79ae a33d 92f8 f0bc
00000280: 9416 56bd 1a0f ff3d 5931 273e 2498 093e
00000290: 1e0d cc3c 6462 093e 0c22 ed3d e9e9 c13d
000002a0: e9cc dcbd 78e9 10be 2c11 0ebe 8009 1e3e
000002b0: 8da1 89bd cf75 e1bd 181e 203d 37b6 d43d
000002c0: 5f69 9f3d 22e4 103e d47b be3c 1eb4 353d
000002d0: f120 023e 79ec 3e3c cbdc a33d 826f 283c
000002e0: d9f4 123e faf5 3f3d e1e3 5e3d eb39 21bd
000002f0: 8401 0dbe c495 c4bd 915f d4bd d43f d1bd
00000300: a7c0 cc3d a423 37bd 2dcd bcbd 3c1c 843d
00000310: 18ee 233e 9d4c 403d 6ef5 61bd ada3 d3bd
00000320: 38f8 e9bd 05ab 8abd 8c07 94bd 862c c6bd
00000330: 4f63 b3bd 5cef ce3d da3c 2abe bfba 153e
00000340: b115 6c3d 946b 613d f40e 033e c4b5 143e
00000350: 5ce7 983d 7de1 10be 61c9 17be ea66 aabd
00000360: 475a 38bd 2baf 8abd cbfc aabd 94a0 e8bd
00000370: 5925 aabd 4442 f9bd e69c 73bd c765 27bd
00000380: 8c00 a6bd 3c68 d33d 295e d33d 9cbf 203d
00000390: 7d29 e23d 64c0 92bc 9024 833c 1f4e 5f3d
000003a0: 5455 11be e06e 0cbe 8ccd 1a3e fd22 983d
000003b0: 959a 63bd 4e0c 213c fce9 963c 0caf ad3d
000003c0: d225 1cbd 84a6 e33c 9ef5 b8bd 8dcb dfbd
000003d0: f70e 18be 118c c0bd 7170 d9bd 37b1 54bd
000003e0: c347 0abe e406 ff3d c795 d43d e9d5 8f3d
000003f0: 3ffb a43d 44c3 c23d 7a72 843d b8e3 8e3d
-0.08468307 -0.063191 -0.10201388 -0.14631341 -0.080229424 -0.1104993 0.016994506 0.114933744
0.088895194 0.049134217 -0.019163964 -0.0042717094 0.07512876 0.12465432 0.06959644 0.116432816
0.06506538 -0.011063544 -0.07854038 -0.025569027 -0.101150766 -0.027854286 -0.05233173 -0.132337
-0.08093951 -0.041262656 -0.10151338 0.08429653 0.08963349 0.025795827 0.08677888 0.10075129
0.114033245 -0.08951671 -0.07009477 -0.05309126 -0.16074577 -0.09680978 -0.043699924 0.07746388
0.06907405 0.021853946 0.07737732 0.025799057 0.0039523486 0.013099901 0.059553817 0.08775022
0.08578428 0.07709055 0.111092135 -0.09321127 -0.05966779 -0.032545604 -0.09684211 -0.09509505
-0.14332877 -0.09428911 -0.091566496 -0.051022284 -0.10832112 -0.1377828 -0.22353871 -0.12621422
-0.052094426 -0.12803014 0.034977455 0.09637884 0.072156504 0.059610497 0.024576403 0.07256545
0.038448118 0.099431306 0.058174353 0.07332001 0.05932593 0.087493606 -0.1175682 -0.14113611
-0.12027443 0.09829423 0.07269365 0.08076452 -0.04712809 -0.08023517 -0.08783078 -0.0242293
-0.03570614 0.0043702335 0.0609176 0.039797306 0.11244388 0.037108287 0.13764685 -0.03194866
-0.043075092 -0.058934465 -0.1084798 -0.09742693 -0.10900761 -0.107033454 -0.0830268 -0.1245345
-0.10448463 0.14351131 0.0742801 0.10154399 -0.13172889 -0.14452419 -0.07183873 -0.103875734
-0.10258429 -0.15581852 -0.041422177 0.0038064865 0.046447996 0.0862122 0.07144469 0.037660506
-0.10891129 -0.04994494 0.058497522 -0.06980523 -0.0811199 -0.1821926 -0.12965614 -0.095604345
-0.063129015 -0.12913822 -0.050430078 0.001057912 0.056190334 0.13806595 0.067043394 -0.068739645
-0.0045111994 -0.11898391 -0.0076075518 0.10673206 0.028436985 0.08492305 0.059356287 0.043643102
-0.05934673 -0.067705415 -0.08888083 -0.049245965 -0.07904381 0.07935214 0.07696805 0.17148261
0.037194785 0.061803047 0.06533995 0.06444878 0.0691667 0.09920638 0.079922624 -0.029415403
-0.052267626 0.12454052 0.16327418 0.13436943 0.024908599 0.1341644 0.115787596 0.09468443
-0.10781271 -0.14151561 -0.13873738 0.15433311 -0.067202665 -0.11008798 0.0390912 0.10386317
0.0778377 0.14149526 0.023252405 0.044361226 0.12707879 0.011653059 0.08001097 0.010280492
0.14351214 0.04686544 0.05441654 -0.039361876 -0.1377011 -0.09598878 -0.1036979 -0.102172524
0.09997683 -0.044711724 -0.09218822 0.06450698 0.16008794 0.046948064 -0.0551657 -0.10333953
-0.11424297 -0.06770901 -0.07228002 -0.09676461 -0.08759176 0.10104248 -0.16624776 0.14622019
0.057637874 0.055034235 0.12798673 0.14522463 0.07466003 -0.14148517 -0.14822914 -0.083204105
-0.04500797 -0.06771692 -0.08348998 -0.11358753 -0.08307905 -0.12170842 -0.059475802 -0.040868547
-0.08105573 0.103226155 0.10320694 0.039245233 0.110430695 -0.017914005 0.016008645 0.05451786
-0.14192706 -0.1371417 0.15117472 0.074285485 -0.055567343 0.009829594 0.01842212 0.08480653
-0.038122006 0.027789362 -0.09031223 -0.10927496 -0.14849459 -0.094017155 -0.106171496 -0.051926818
-0.13503937 0.12452486 0.1038013 0.07023222 0.08055734 0.095099 0.06467147 0.06977028

StatefulPartitionedCall/naturepapereyemodel/conv2d_2/BiasAdd/ReadVariableOp:0 f4 [128]
00000000: 62aa e0bd c2f5 f6bd 3324 cebd 35f4 fdbd
00000010: 3718 adbd 79cd 93bd 8f89 c5bd 11c5 b4bd
00000020: 7de6 efbd c39f 0abe f7d4 c0bd abb8 aebd
00000030: 3657 b8bd 014c f9bd 6fab acbd f62f 18be
00000040: c90d 0ebe 5e74 efbd 042b cbbd 70a3 14be
00000050: f90c b8bd 0d2b 19be 7e5f 0fbe 00ec fdbd
00000060: 01af 09be ba27 12be 4b06 ffbd 12e9 c3bd
00000070: 667d fcbd d9db fabd 7a7c b1bd 3729 a1bd
00000080: 96c3 e2bd eda5 00be 36f4 f9bd c12e 00be
00000090: 74e0 aebd 81f1 c2bd 2798 adbd 6998 05be
000000a0: d8f4 0ebe 8c1d 1abe 0afb 8dbd 2a41 0abe
000000b0: 54bb cfbd 7eac 16be d162 f4bd a901 cbbd
000000c0: 3ab7 2bbe 6a4c 0ebe feb9 a5bd a630 01be
000000d0: 8eab 2fbe 0b2e f8bd 9395 09be 5bb2 c1bd
000000e0: d681 a4bd d9bb 20be c6f7 b9bd 2adf b3bd
000000f0: 7d59 e1bd f63b 0dbe 91b1 17be 00a4 e8bd
00000100: 72ab 00be 1afb 17be 1c9e 33be 17c1 b2bd
00000110: 3c03 07be d20b e6bd 48f7 b5bd 9448 adbd
00000120: a362 31be b057 f1bd 93b8 d1bd 822c 15be
00000130: 27e9 13be 9fa4 97bd f1c8 bdbd c99a a1bd
00000140: ab90 f7bd f8a7 bebd ed54 c6bd 0f9f 0abe
00000150: 853a f1bd f6e7 d1bd d572 04be 8a7a 04be
00000160: c58e 06be 591a bebd 3fcd babd 9a6d 9bbd
00000170: eddd bdbd 8c04 ccbd b62e a4bd cbdc e1bd
00000180: b3e5 acbd 681f 08be 6af4 f9bd db67 11be
00000190: 71b8 c6bd 57e2 f1bd c21c 14be 8a4a 01be
000001a0: 3305 ebbd bbe3 f1bd a81e a7bd 54dd a3bd
000001b0: 4aee 1abe d631 c7bd 5dae 01be fb67 b4bd
000001c0: 96c0 e1bd aa70 e2bd 1522 10be fb39 b0bd
000001d0: ef44 06be e6be e8bd db2a f9bd 363b 10be
000001e0: bfa5 c1bd 2698 d9bd 45bd 97bd d3d9 c0bd
000001f0: c1f6 10be 0375 fabd 105e f4bd ba7f b5bd
-0.10969998 -0.12058593 -0.10065498 -0.124000944 -0.08451884 -0.07216925 -0.09645378 -0.0882665
-0.11713884 -0.13537507 -0.0941562 -0.08531316 -0.09001009 -0.121727 -0.08431136 -0.14862046
-0.13872446 -0.11692117 -0.09920314 -0.14515471 -0.08986849 -0.14957829 -0.14001271 -0.12398529
-0.13445665 -0.14272967 -0.12452372 -0.09565939 -0.12328605 -0.12248964 -0.0866632 -0.07869189
-0.11072461 -0.12563296 -0.12204783 -0.12517835 -0.08538905 -0.095187195 -0.084762864 -0.13046421
-0.13960588 -0.15050334 -0.069326475 -0.1350142 -0.10143152 -0.14714238 -0.1193291 -0.09912426
-0.16769114 -0.13896337 -0.08092116 -0.12616214 -0.17155287 -0.12118157 -0.13435964 -0.09457847
-0.08032577 -0.15696658 -0.09080462 -0.087827995 -0.11003397 -0.13792405 -0.1481383 -0.113594055
-0.12565401 -0.14841881 -0.17540783 -0.08728235 -0.13184828 -0.11232723 -0.08885056 -0.08461109
-0.17322783 -0.11784303 -0.10240283 -0.1456776 -0.1444441 -0.07404446 -0.09266842 -0.07890851
-0.1208814 -0.09309381 -0.09684167 -0.13537239 -0.1177874 -0.10249321 -0.1293443 -0.1293737
-0.131404 -0.09282369 -0.09121179 -0.07589264 -0.092708446 -0.09961805 -0.08016722 -0.11028441
-0.08442249 -0.1329323 -0.122048214 -0.14199774 -0.09703148 -0.11810749 -0.14464095 -0.1262609
-0.11475601 -0.11811014 -0.08160144 -0.08001199 -0.15129963 -0.09726302 -0.1266417 -0.08808895
-0.11023061 -0.11056645 -0.14075501 -0.08604809 -0.13112234 -0.11364536 -0.12166377 -0.14085087
-0.09455442 -0.10624723 -0.07409147 -0.09416547 -0.14156629 -0.122293495 -0.119320035 -0.088622525
