webgl/models/eyemu.onnx (onnx, 692577 bytes, 40 tensors)

StatefulPartitionedCall/model1/dense_8/MatMul/ReadVariableOp:0 f4 [4, 2]
000000 d0 aa 28 3f 78 29 b4 bc 17 ca 65 3c 24 a4 e8 be
       0.6588564 -0.02199243 0.014025233 -0.4543773
000010 d4 27 79 bc 46 88 44 3f 86 07 d5 be 75 59 fa bc
       -0.01520725 0.76770437 -0.41607302 -0.030560235

StatefulPartitionedCall/model1/dense_7/MatMul/ReadVariableOp:0 f4 [8, 4]
000000 3c 82 84 3e 13 d2 22 c0 cf 51 0e c0 61 f7 ab 3d
       0.2588061 -2.544072 -2.2237432 0.08396793
000010 10 50 36 3f 08 4f 40 bd ba 8e 10 3d 6b bc 85 40
       0.71215916 -0.04695037 0.035292365 4.1792502
000020 fb 14 36 40 13 ab f6 be a0 e1 b9 be 88 32 de bc
       2.8450305 -0.48177394 -0.3630495 -0.027123705
000030 4a 52 9f 3d 8e ed 1e c0 4c 39 0e c0 f7 59 59 3d
       0.07779367 -2.4832492 -2.2222471 0.053064313
000040 ee 27 80 c0 0b 40 07 be 21 f2 71 be 83 e1 e8 bf
       -4.004874 -0.13208024 -0.23627521 -1.8193821
000050 51 10 0b be 0a 69 09 40 84 85 0f 40 a9 44 8e 3d
       -0.13580443 2.147036 2.2425241 0.0694669
000060 3a 5e c2 be a5 1d 0f 40 01 96 1a 40 7e 54 01 bd
       -0.37962514 2.2361844 2.4154055 -0.03157472
000070 d6 51 60 3f 05 28 f0 3f 5c 9d 02 40 3e 79 a4 3e
       0.8762487 1.8762213 2.0408545 0.3212375

StatefulPartitionedCall/model1/dense_6/MatMul/ReadVariableOp:0 f4 [4128, 8]
000000 12 f9 0c bf d9 12 71 3f 5d 94 ea bf 40 9e 19 3f
       -0.5506755 0.94169384 -1.8326527 0.60007095
000010 a8 cf 0a 40 16 6e c4 3c c8 49 d0 3f d8 61 87 bf
       2.1689243 0.023978274 1.6272516 -1.0576735
000020 ec 2d 87 3f 77 50 89 3e c1 24 76 bf 27 26 1b 3e
       1.0560889 0.26819202 -0.9614983 0.15151273
000030 d7 02 a6 3c a2 1a cc bf 9a 3e eb bf 58 db c6 bf
       0.020265026 -1.5945628 -1.837848 -1.5535688
000040 c3 54 02 bf d3 eb ad 3f 97 8a a5 bf 65 d6 35 bf
       -0.50910586 1.3587593 -1.2932919 -0.71030265
000050 6b 90 b5 3f 92 80 9c bf 2f 0e 7e be 94 16 d0 bd
       1.4184698 -1.2226737 -0.24810098 -0.101605564
000060 13 4a 47 40 0e 90 ed 3f 00 05 90 bf 5d a8 54 40
       3.1138961 1.8559587 -1.1251526 3.322776
000070 85 f7 68 3f bc 9e bc bf 9b 2f 22 c0 60 c9 02 c0
       0.91002685 -1.4735942 -2.5341556 -2.043541
000080 22 cb 48 bf d8 23 fe 3c 90 3e 93 3f 80 e2 00 3e
       -0.78434956 0.031022951 1.1503468 0.12586403
000090 86 3d fc 3e fd 69 50 be 42 e7 c0 3f 82 4f 01 40
       0.4926569 -0.20352931 1.5070574 2.0204778
0000a0 08 dc 1e 3d 46 5c 62 bd 72 a7 d0 bd 30 1b 1f be
       0.038784057 -0.05526378 -0.10188188 -0.15537715
0000b0 1b 1b e7 bd c5 6e 8e bd 47 46 73 bd 36 36 4c bd
       -0.11284467 -0.06954721 -0.059393194 -0.049856387
0000c0 c3 ad 20 3f fd 95 d5 3f 83 40 73 bf 78 fb d8 3f
       0.6276514 1.6686398 -0.9502031 1.6951742
0000d0 86 fb af 3f 69 d5 0b be 3d 72 b8 3e 75 0b 7b 3c
       1.3748634 -0.13655628 0.36024657 0.015322556
0000e0 93 4f 34 3f 8a 36 43 3f 18 b6 18 40 cb ce 1a 40
       0.7043392 0.76255095 2.3861141 2.4188716
0000f0 56 39 de 3e 6c fa 1c bf dc d1 af bf ee 10 9f bf
       0.4340312 -0.61319613 -1.3735919 -1.2427042
000100 eb 29 35 bf e7 60 69 be 5b b3 47 3f 68 05 1a bf
       -0.70767087 -0.22790872 0.7800805 -0.601645
000110 35 20 65 bf b4 46 19 bf 21 bd 7a 3f f0 d7 82 be
       -0.8950227 -0.5987351 0.9794484 -0.25555372
000120 d3 e8 45 bb 5d 0f bf bf e2 76 00 3f c6 b9 40 3f
       -0.0030198589 -1.4926564 0.501814 0.7528347
000130 3c cb 8e bf 45 6a c3 3c 73 1b 7d bf fe 22 c2 3f
       -1.1155772 0.023854384 -0.9887001 1.5166929
000140 40 c0 86 3e 2b 15 f4 be 24 8d 40 bf 77 8b bc bf
       0.2631855 -0.476724 -0.75215364 -1.4730061
000150 bf da 6e 3e 66 ea e2 3f 73 57 95 3e ea 55 45 3f
       0.23325633 1.7727783 0.2916828 0.7708422
000160 67 87 03 bf 0a ec 64 c0 fa 7c 5f 40 da ce da 3e
       -0.5137848 -3.5769067 3.492003 0.4273594
000170 31 03 3f c0 e6 a1 62 3f 06 6b 5b be 00 06 c2 3f
       -2.9845698 0.8852829 -0.21427545 1.5158081
000180 61 97 0f be 24 75 70 3d 05 bd c9 bd 96 ae f1 bd
       -0.1402259 0.058705464 -0.09850506 -0.11800878
000190 9d 76 e1 3d ea 25 36 3e bb a1 36 3d e3 28 91 3e
       0.11008952 0.177879 0.044587832 0.28351507
0001a0 8e 71 f2 bf 98 21 83 bf 49 72 3c 3f ef 11 0d 3e
       -1.8940904 -1.0244627 0.73611885 0.13776372
0001b0 f9 d2 fd bb 47 0f d0 3f 0c 76 56 3f c1 87 d1 3f
       -0.007746097 1.6254662 0.83773875 1.6369554
0001c0 9b 4c 9a 3f 50 fe 7c 3f 24 d4 1c bf 3f 25 9a 3f
       1.2054628 0.9882555 -0.612612 1.2042617
0001d0 d1 2c 13 3e 18 43 83 bf be c2 c3 bf ca 86 a0 bf
       0.14372565 -1.025485 -1.5293806 -1.2541134
0001e0 b4 51 6f 3f 97 43 19 bf d4 27 63 3f 15 b4 a9 3f
       0.93484044 -0.5986876 0.8873265 1.3258082
0001f0 b0 37 58 bf dc ce b4 be 31 a5 9b bf b0 98 67 bf
       -0.8445997 -0.3531407 -1.2159787 -0.9046736
000200 c2 98 9d c0 55 ee 59 be 08 fc 89 be 48 18 a2 c0
       -4.924897 -0.21282323 -0.26950097 -5.065464
000210 5b 4c e8 3e 7c 97 e0 3f 14 33 9f 40 14 6d 47 40
       0.45370755 1.7546229 4.974985 3.1160326
000220 6d 0f a2 bf fb 8c 54 40 ad 0c 1e bf af 1e 01 bf
       -1.2660958 3.3211048 -0.6173809 -0.50437444
000230 31 a7 00 40 80 e0 93 bf 65 cd 87 bf fb f8 50 bf
       2.0102046 -1.1552887 -1.0609556 -0.81629914
000240 c0 f6 fc bd 0f 87 13 c0 e8 24 8c 3f 9f 8b eb 3e
       -0.12351751 -2.3051183 1.0948763 0.4600496
000250 e2 db 51 bf 39 c2 10 c0 f3 b1 98 be 8a ef a5 be
       -0.8197614 -2.2618544 -0.29823264 -0.32409316
000260 9a 69 af bf ce 4d da bf 12 47 c9 3e b6 2c 30 bf
       -1.3704102 -1.7054994 0.39312035 -0.68818223
000270 5b 71 c2 bf 55 81 25 be 4f 72 71 3f 37 32 75 3e
       -1.5190843 -0.16162618 0.94315046 0.23944937
000280 a7 5d 03 3e 92 1e 26 bc f9 88 b9 bd d7 53 6f 3d
       0.12828694 -0.0101391245 -0.090593286 0.058429565
000290 cd 9e c0 bd dc 3d 8c 3c c4 ad 19 3e ee bc 5a bd
       -0.09405289 0.01711934 0.15007693 -0.053402834
0002a0 f5 0a 4e 3f 3c 2d 03 be 6f b0 25 3f 46 0b 1d 40
       0.8048547 -0.12810224 0.6472234 2.453813
0002b0 58 5f 20 3f a1 a9 12 c0 d5 89 eb bf d6 d2 ae bf
       0.62645483 -2.2916033 -1.8401438 -1.3658092
0002c0 02 86 be 3d db 63 86 bf 9a b6 03 3f 17 db e4 bd
       0.09302904 -1.0499223 0.514505 -0.111746006
0002d0 fe c4 39 be bb 51 0c 3e 66 10 0f bf 2f 36 e6 be
       -0.18141553 0.13703053 -0.558844 -0.44963214
0002e0 eb cb 94 3d 05 6c 7c 3d 1d e4 b7 bd 54 38 e0 3d
       0.07265457 0.061626453 -0.08979056 0.10948244
0002f0 77 ca f2 bd ca 3e 89 bd 49 5f 19 3d 02 45 f3 bd
       -0.11855023 -0.06701429 0.037444387 -0.118783966
000300 98 bb d2 3d 64 52 b3 be 8a 0d 98 bd 9b 98 00 3e
       0.10289687 -0.35023797 -0.07424457 0.12558214
000310 5c 38 c6 bd 7f 85 23 3e 63 6e f2 ba 66 07 36 bd
       -0.096787184 0.15968893 -0.0018496033 -0.04444065
000320 ef 07 40 3e f3 1d 38 3c 97 2f 06 be d3 3e d3 3d
       0.18753026 0.011237609 -0.13104092 0.10314717
000330 d8 c7 94 bd ec 24 c6 bd 22 2f bc 3d f3 0b 6d bd
       -0.0726468 -0.09675011 0.09188677 -0.057872724
000340 14 f6 27 bf 17 22 92 3e c4 91 8f bf 85 0d 09 bf
       -0.6560986 0.28541633 -1.1216359 -0.53536254
000350 70 00 6a 3e 9a d9 da bd aa 58 75 bf 40 af 7d bf
       0.2285173 -0.106860355 -0.95838416 -0.99095535
000360 20 cf 8a c0 c1 9c 9a 40 82 c8 2d c0 6d 74 63 c0
       -4.337784 4.831635 -2.715363 -3.553981
000370 dd d6 59 40 10 ce 0f 40 9f a9 48 40 08 77 47 40
       3.4037392 2.246952 3.1353528 3.11664
000380 3e 39 c6 bd 48 6f 64 3c ea a2 9e 3d 99 6d 32 3c
       -0.09678887 0.013942547 0.07745917 0.010890388
000390 3b 16 b5 3d b6 ac df 3d 71 5e ff 3d 4a 97 c0 3d
       0.08842131 0.10921614 0.12469185 0.09403856
0003a0 9a 63 00 be 4e d0 ab 3d 10 71 b4 bd 66 df 88 be
       -0.12537995 0.0838934 -0.088106275 -0.2673294
0003b0 35 4b 0d 3e 9e 21 77 be b3 a6 d3 bd 4c a9 b0 bd
       0.1379822 -0.24133918 -0.1033453 -0.08626041
0003c0 36 d1 2b 40 3c ca 3e 3f 71 d5 02 c0 9b d5 31 40
       2.6846442 0.74527335 -2.0442774 2.7786624
0003d0 d2 64 9b 3f 8b 2e 14 c0 dc 0d 5f c0 23 3f 61 bf
       1.2140143 -2.3153408 -3.485221 -0.87986964
0003e0 52 0e ec be bc 94 f8 bf 32 10 47 3f 55 b5 09 3d
       -0.46104676 -1.942039 0.7775909 0.033620197
0003f0 59 a2 ef bf 16 e3 65 bd ea d7 82 3e 89 15 7e bf
       -1.872142 -0.05612477 0.25555354 -0.9925161

StatefulPartitionedCall/model1/dense_5/MatMul/ReadVariableOp:0 f4 [16, 16]
000000 2b c3 c6 3e f8 46 14 bf 95 1b 48 bf 0f 13 98 bd
       0.38820776 -0.5792079 -0.78167087 -0.0742551
000010 03 da d7 3e 63 79 aa 3d ce fd 71 be d2 34 cf 3e
       0.42158517 0.08323934 -0.23631975 0.40469986
000020 51 96 ca 3e da 0d e0 3e 5b 83 b3 be da 57 6b be
       0.39567807 0.43760568 -0.35061154 -0.22982731
000030 31 5f 2e be 95 7b 06 be 8a b7 e7 3e d2 12 74 3d
       -0.170285 -0.1313308 0.45257217 0.05958826
000040 1a 34 ca 3e bb 73 ff 3f 82 f3 e6 40 5b b0 08 bf
       0.39492875 1.9957193 7.217225 -0.533941
000050 c5 33 c5 bf 66 a3 d7 3e e9 75 32 40 e3 a8 bd be
       -1.5406424 0.4211685 2.7884467 -0.37042913
000060 87 a5 5f c0 12 ac 33 3f 84 d8 fb bd b1 23 a2 3d
       -3.494478 0.70184433 -0.122971565 0.07916964
000070 20 91 80 bf 8c 0a 0a 40 c5 d4 b8 bd bd 93 f5 3e
       -1.0044289 2.1568937 -0.090249576 0.47964278
000080 8d d6 6d bf 24 1f db 3f 64 cc 48 bf 3f 07 58 bf
       -0.92905504 1.7118878 -0.78436875 -0.84386057
000090 f9 e0 59 40 6a 0d 92 bf ff 1e ff bf da 66 28 40
       3.4043562 -1.1410344 -1.9931334 2.6312776
0000a0 1d e6 c8 3b 7a b3 8b 3f d6 e3 94 3f 85 9b d3 bf
       0.0061309473 1.0914147 1.163203 -1.6531836
0000b0 5f f2 b9 3e 35 e2 af 3f a6 d4 5a 3e 7d 59 db bf
       0.36317727 1.3740908 0.21370181 -1.7136685
0000c0 9a 13 d8 be 59 4c 97 3f 07 55 a7 3c 15 df 25 3d
       -0.42202455 1.1820174 0.020426286 0.04049595
0000d0 07 5b 39 bd 7b 87 8c bd 22 09 3c 3e 73 1d 55 be
       -0.045252826 -0.06861778 0.18362859 -0.20812015
0000e0 84 ae bc 3f 30 66 f7 be 23 9b 2c 3f e6 46 09 bf
       1.4740758 -0.4832015 0.6742422 -0.5362381
0000f0 ab e0 6e be 04 5a 0b 3f 39 ba 5e bf 62 7b 00 3f
       -0.23327892 0.5443423 -0.87002903 0.5018827
000100 1e 5e 86 be 56 14 8f be f9 0a 50 c0 6b 79 09 bf
       -0.2624368 -0.27945203 -3.2506697 -0.53700894
000110 5c a7 07 bf 2b b0 10 3f f8 2f 1b c0 d8 38 21 3d
       -0.52989745 0.5651881 -2.4248028 0.03936085
000120 45 d2 20 40 4c 72 c8 3d 1a 52 8c 40 07 f3 2c 3f
       2.5128338 0.097874254 4.385022 0.6755833
000130 ad bc 3a be 81 a1 b5 3f 5f dc 19 bf 2c f6 36 bf
       -0.18236037 1.4189912 -0.60101885 -0.7146938
000140 2c b1 ab be 03 b0 da bd b3 97 14 bf 15 b5 20 c0
       -0.3353361 -0.10678103 -0.58043975 -2.5110524
000150 19 99 8a be 89 1e a0 3d 42 c2 00 40 43 ab 0b 40
       -0.2706993 0.07818324 2.0118566 2.182328
000160 4a f4 7f 3f bd 64 9c c0 a4 53 06 be 0d ad 01 3f
       0.9998213 -4.887297 -0.13117844 0.5065468
000170 d4 7e e4 40 b3 74 74 bf fe 04 58 c0 b6 78 05 3d
       7.140482 -0.9549057 -3.3753047 0.032585822
000180 1e 6d 76 3e e1 f1 79 3e 9a c4 3d 3e 4a ab 56 3d
       0.24065062 0.24408676 0.18532029 0.052409448
000190 ca 5a 01 3f 7c c3 38 bf 51 f7 7f be f0 5c b0 3e
       0.5052916 -0.72173285 -0.24996687 0.34445906
0001a0 e5 a2 04 3f 02 9b 8b be 54 36 f3 3d f5 bb 50 bf
       0.5181106 -0.272667 0.11875597 -0.815368
0001b0 14 cf 17 3f d7 8c 91 3e 2e 42 a2 be dd 38 23 3e
       0.5930035 0.28427765 -0.31691116 0.1593966
0001c0 42 fd c0 3f c7 2a a1 3f 69 77 59 bd 39 f5 f3 3f
       1.5077288 1.259118 -0.053092394 1.9059211
0001d0 8a 63 b7 3f 1c 4b 5e 3e 52 b6 88 be 23 d9 1e 3f
       1.4327252 0.2170834 -0.267016 0.62050074
0001e0 cb 00 93 3f 95 97 41 be 7e 50 d2 3e 14 e0 be be
       1.1484617 -0.1890548 0.41077036 -0.37280333
0001f0 61 1f 0b 3f 03 9c 14 be b3 20 f0 3e bf 82 55 3e
       0.54344755 -0.14512639 0.46899948 0.20850657
000200 69 0d 48 40 30 b6 ce 3f 25 c4 ec 3f a6 d7 ab 3e
       3.1258185 1.6149349 1.8497359 0.33562964
000210 dc 69 92 3f 10 30 94 3e 2f fd 9b 40 7b af 5f be
       1.1438556 0.2894292 4.874656 -0.21844284
000220 30 f2 5a bf 79 e0 b0 3f 27 3b 2a 3f 8e bd b9 3d
       -0.855258 1.3818504 0.6649651 0.09069358
000230 2d 39 f9 bf 3b 88 b7 3e ab 5a b1 3f 81 be 8d 3f
       -1.9470574 0.35846123 1.3855795 1.1073762
000240 1e 0a 3a 40 ba 4e 41 3f 02 08 ca bf 18 dc 93 3f
       2.9068675 0.7551075 -1.5783694 1.1551542
000250 0b d2 37 3f e0 61 63 3f 23 c8 8e be 9b c2 4c 3e
       0.71804875 0.8882122 -0.27887067 0.19996111
000260 8d dd 9a 40 d5 15 a6 be 82 dd 0b 3f bc a2 df 3f
       4.839545 -0.32438532 0.5463487 1.7471538
000270 6d 61 ce 3f 83 e6 b4 be 98 5b 8e bf 61 b5 d2 3f
       1.6123482 -0.35332116 -1.1121702 1.6461602
000280 30 55 41 3f 98 14 fa bf 97 84 cd bd 9e 84 6e bf
       0.7552061 -1.9537535 -0.10035055 -0.9317111
000290 3f db d2 3f 7a 22 8a 3f 11 ea c7 3d 21 a8 72 be
       1.6473159 1.0791771 0.097614415 -0.23696949
0002a0 a5 bf 63 be ac 90 93 bf 91 85 a0 be 08 6d 70 3f
       -0.22241075 -1.1528525 -0.31351903 0.9391637
0002b0 56 4f cf 3f c0 b3 9e bf 6a e8 5b c0 c6 f4 01 40
       1.6196086 -1.2398605 -3.4360604 2.0305648
0002c0 d4 29 ce 3f 0e 89 f8 3f 70 dd ad 3e 7b da a8 3f
       1.6106515 1.9416826 0.33958006 1.3191675
0002d0 a6 7e 12 40 09 ce 2d bf f1 75 70 bf 6a f4 43 bf
       2.28898 -0.6789251 -0.93929964 -0.7654482
0002e0 3b c8 ba be a6 12 8f 40 f6 6a 1f 3f 8a 33 88 bf
       -0.3648089 4.4710264 0.62272584 -1.0640728
0002f0 8a 33 97 be d5 7a 81 3f ae 64 e4 3f 00 2d a6 3f
       -0.2953151 1.011561 1.7843225 1.2982483
000300 76 06 aa 3f b7 5c 01 3f 34 01 a7 3f c7 fc 20 bf
       1.3283222 0.50532097 1.3047242 -0.6288571
000310 16 4e 83 40 34 eb cf bd 6c 9b d9 bf 66 86 6f 40
       4.103282 -0.10152283 -1.7000556 3.742578
000320 8e 5d b0 3e ce 22 98 3f 8e b3 44 bf 97 94 7f bc
       0.34446377 1.1885622 -0.7683648 -0.015599391
000330 58 2e 11 bf ce ad 09 bf f7 5b 6d 3f 21 05 8f bf
       -0.5671134 -0.5378083 0.9271845 -1.117344
000340 7c 9e d8 bf d1 2d 05 bf aa 8a 28 3f d0 cf db c0
       -1.6923366 -0.52023035 0.65836585 -6.8691177
000350 f4 e2 7f 3e f5 c6 13 3f 00 74 78 3f a5 24 73 40
       0.2498892 0.5772546 0.97052 3.7991116
000360 a6 d9 88 3e d5 a1 4f c0 48 1b 66 be b6 cd 57 bd
       0.26728553 -3.2442524 -0.22471344 -0.052686416
000370 59 b7 87 40 c9 f4 69 bf d8 c5 ae c0 0c 80 e4 be
       4.2411313 -0.9138914 -5.461651 -0.44628942
000380 4e 69 46 3f 92 50 7e c0 fa aa 6e 3f df 29 03 bf
       0.7750443 -3.9736676 0.9322964 -0.51235765
000390 b3 c9 1a 3f a9 4f 1d 41 53 dd b0 3d 9c 04 db 3e
       0.6046402 9.831948 0.08635964 0.42776954
0003a0 b2 60 55 3f e8 0c 1e bf f3 f8 a9 c0 41 a8 3b 41
       0.8335067 -0.61738443 -5.3116393 11.728578
0003b0 a1 66 a0 3f 7a 31 bc c0 c5 3d 05 bf 34 8b a1 40
       1.253132 -5.8810396 -0.5204738 5.0482426
0003c0 5e 7c 26 40 cd 63 19 40 31 78 a5 3e 55 c7 98 40
       2.6013408 2.3967164 0.3231826 4.7743325
0003d0 ac ad ed 3f 61 07 4a bf bc 5a 40 bf b4 b1 a9 bf
       1.8568625 -0.7891751 -0.7513845 -1.3257356
0003e0 64 c9 a5 be 69 b6 87 3f 39 35 12 3d 2a d4 5a be
       -0.3238021 1.0602542 0.03569529 -0.21369997
0003f0 d8 30 c5 be 54 1b 71 3f 40 9c 03 40 1f ae a6 bf
       -0.38513827 0.94182324 2.0564117 -1.3021888

StatefulPartitionedCall/model1/dense_4/MatMul/ReadVariableOp:0 f4 [64, 16]
000000 cd 46 a9 be f0 aa f9 be 2c 88 8b bd 8f cb e0 3d
       -0.3306183 -0.48763227 -0.06813082 0.10976326
000010 97 71 14 3f 22 0d 61 be c7 8e f8 3e ec 63 b8 3e
       0.57985824 -0.21977666 0.4854643 0.36013734
000020 73 4d e1 3c 4d fe 09 3e 62 9a 79 3e 2b c9 99 be
       0.027502751 0.13475914 0.24375299 -0.3003629
000030 59 a1 8b 3e 95 0a 79 3d f4 3a 52 bf 30 19 8e be
       0.27271536 0.060801107 -0.82121205 -0.27753592
000040 11 86 07 be 74 5c 35 3f 48 43 19 bf 1d c9 91 bd
       -0.13234736 0.708442 -0.5986829 -0.071184374
000050 f7 5c 76 be c3 54 86 bd 31 bd 0c bf 8a 56 fc 3e
       -0.24058901 -0.06559136 -0.54976183 0.49284774
000060 c6 66 c4 3e 8f e9 ec 3e 3f c7 14 3e 58 d6 de 3c
       0.3835966 0.4627194 0.14529131 0.027201816
000070 7a f6 d4 3e 9a 7a c6 bd 50 7d 09 3f 30 4d a3 be
       0.41594297 -0.09691353 0.53706837 -0.31894827
000080 26 78 ca 3d 28 b7 d6 3f ce 74 09 c0 81 c3 72 3d
       0.09886198 1.6774645 -2.1477542 0.05926848
000090 0f c4 cc bf 01 8f a7 3c c5 57 70 3c 1f 9c c4 3f
       -1.5997332 0.020453932 0.014669363 1.5360144
0000a0 1c 78 f3 3f d7 42 26 bf ae a4 b7 bf 0d 91 a7 bf
       1.902103 -0.6494574 -1.4347131 -1.3091141
0000b0 5c 7e 3c bf 8f de ef 3e cd 13 44 bf 26 26 d2 be
       -0.7363031 0.46849486 -0.76592714 -0.4104473
0000c0 8f 1b 8d 3e ba 78 28 40 da c9 31 3e cb 7a a2 be
       0.27560088 2.6323686 0.17362157 -0.3173431
0000d0 14 39 37 c0 59 44 26 bd 96 36 cd be 92 5d a0 bf
       -2.8628588 -0.040592525 -0.40080708 -1.2528555
0000e0 e8 6e 1f 40 62 1b 0e bf c0 14 85 3f 68 01 31 3f
       2.4911442 -0.5551053 1.0396957 0.6914277
0000f0 70 e1 b7 3f 2a 6c b4 3c 8e 5c 74 3f 94 b5 a0 3e
       1.4365673 0.022024233 0.9545373 0.31388533
000100 97 4c 61 bd 26 72 ce bd 37 0c 87 be 43 51 e0 3d
       -0.055004682 -0.10080366 -0.26376507 0.109529994
000110 61 c0 49 bf 8c 83 cd 3e 93 93 76 be 47 56 8b bf
       -0.7880917 0.40139425 -0.24079733 -1.0885705
000120 76 d3 63 3e af f7 f6 3d 4b b4 97 3f 35 5e 5d be
       0.22248635 0.12058961 1.1851896 -0.21617968
000130 31 5b 37 bd c3 59 6d bc cf 69 4e 40 7a 89 0b 3f
       -0.0447647 -0.014486733 3.225208 0.5450665
000140 11 1c bf 3d 82 ae ff be 27 e6 ab bf da 6e 6f be
       0.09331525 -0.49937826 -1.3429612 -0.2338213
000150 3c 07 40 bf f2 46 e9 bd 0a 70 bb bd b0 08 f8 bd
       -0.7501104 -0.11390485 -0.09152229 -0.12111032
000160 b8 38 14 3e 09 d4 c0 3f 33 13 a2 bc c6 6b df be
       0.14474761 1.5064708 -0.019784546 -0.43636912
000170 01 0e 14 be 66 84 96 3e 8e 4b f1 3e bf 51 d8 bb
       -0.14458467 0.29397887 0.47127956 -0.006601542
000180 bf ea 0f be 3b 1f 87 c0 3d c8 f3 3e 14 49 ab 3e
       -0.14054392 -4.2225623 0.47613707 0.33454192
000190 bb 8b c1 3f e1 fc 08 3f 1f 57 ec 3e c6 0c ba 3f
       1.5120767 0.5351086 0.46160218 1.4535148
0001a0 36 2b 07 be e7 4a 4e 40 e0 3d f2 3f db e6 0c bf
       -0.13200077 3.2233217 1.8925133 -0.5503976
0001b0 2a b6 dc 3f 89 27 81 bf 43 8d f3 3e 11 b0 dd 3e
       1.7243092 -1.009019 0.47568712 0.4329839
0001c0 7e 73 21 bd 19 f7 8f bf 80 5d a5 3f c3 23 d3 bc
       -0.039416783 -1.1247283 1.2919159 -0.025773888
0001d0 cc 57 27 be a3 44 68 bf 52 89 ab 3e d0 ec b2 3f
       -0.16342086 -0.9072973 0.33503205 1.397852
0001e0 ff 9e f9 bd 19 3e 92 40 c9 f3 13 3f 8a 62 d5 be
       -0.12188529 4.5700803 0.5779386 -0.41676742
0001f0 51 12 f2 be ac 19 ef bf 2f 63 ed 3e 1b 1f 10 3f
       -0.472796 -1.867971 0.46364734 0.56297463
000200 ce a7 50 3e 52 d8 26 be c2 af ca bd 0a 6b 01 be
       0.20376512 -0.16293457 -0.098968044 -0.12638488
000210 61 ab 14 be a6 a9 a9 3c b9 ef ae 3d d1 0a 25 be
       -0.14518501 0.020710777 0.08541817 -0.16117407
000220 d3 39 30 bd e6 c5 e8 bd 30 dd 82 3e 9d a2 cf 3d
       -0.043023895 -0.11365871 0.25559378 0.10138438
000230 b9 96 33 be 99 84 fe bc cc a7 bd 3b b1 76 4e 3e
       -0.17537965 -0.031069087 0.005787825 0.20162465
000240 9d b0 19 3f ef 19 44 c0 13 c8 72 c0 e3 0f 4d 3d
       0.60035115 -3.0640829 -3.7934616 0.05006398
000250 34 d2 7d 3f f0 42 30 3f 8c 42 0d be 37 30 33 3d
       0.9914887 0.6885214 -0.13794917 0.043747153
000260 8c 99 1d c0 13 7b da bc 85 c2 e3 bf cf ad b4 be
       -2.4624968 -0.026670014 -1.7793738 -0.35288855
000270 ba 16 24 bf c4 fb 02 be c8 34 25 bf c2 55 9a 3f
       -0.6409718 -0.12791353 -0.6453366 1.2057421
000280 31 4d c0 3e 6a b4 20 3e 7c f4 03 bf 23 d6 1e bf
       0.37558892 0.15693823 -0.5154493 -0.62045497
000290 0b f9 80 be 8e 56 d4 bc 9f 39 fe be 80 4a 76 3f
       -0.25190005 -0.025920179 -0.49653336 0.9620743
0002a0 13 0f 52 bd 30 63 b2 3e 5c bc 8f 3e ca a4 d6 3d
       -0.051283907 0.348413 0.28073394 0.1048065
0002b0 4f 6f 51 3d fb 08 be 3e 62 a8 b1 3e d4 72 4c 3f
       0.051131543 0.37116227 0.34698778 0.79862714
0002c0 bf b1 bb 3e bd ef b3 3e c8 c5 0f 40 87 34 37 3f
       0.36659047 0.35143843 2.2464466 0.71564525
0002d0 26 4e 68 40 2b 97 d3 3f 51 fa e8 be 58 ff 21 3e
       3.6297698 1.6530508 -0.45503476 0.15820062
0002e0 fc 89 d1 bf 00 f5 9c 3f 52 eb 82 3d a2 eb ba bf
       -1.6370234 1.2262268 0.0639254 -1.460316
0002f0 16 69 db 3f 75 a5 79 3e cb ae e4 3f 09 d0 97 3f
       1.7141445 0.24379523 1.7865843 1.1860362
000300 b7 8b a1 be 7d f3 24 c0 50 15 d9 3f ac ca 14 3f
       -0.31551906 -2.5773613 1.6959629 0.5812175
000310 1e 69 13 40 a9 85 72 3e c7 5e 06 be cd 66 67 3f
       2.3032908 0.236838 -0.13122092 0.90391237
000320 83 03 1e c0 9e 70 d2 3f 32 7f e9 be 03 2c 0f 3e
       -2.4689643 1.6440618 -0.45604855 0.13981633
000330 be 6c db 3f 49 2a bd 3e 9e 59 27 bf a3 88 ae bf
       1.714256 0.36946324 -0.6537112 -1.3635448
000340 35 5c e8 3e d0 02 43 3e 13 f5 df bf b9 5b 4d bf
       0.45382848 0.19044042 -1.7496666 -0.8021808
000350 05 4b b6 bf c3 62 42 bf d2 fd b9 be 9f 31 04 be
       -1.4241644 -0.7593195 -0.36326462 -0.12909554
000360 f5 c0 d9 bf 72 3c 8f be 78 35 52 3e e4 b5 e6 3e
       -1.7012011 -0.27975804 0.20528209 0.45060647
000370 fb d8 02 bf 2e 47 05 bf f6 76 a5 3f 7a f9 8d 3f
       -0.51112336 -0.52061737 1.2926929 1.1091759
000380 86 c0 00 bf c5 7c 5d bf de 75 8a bd 4f ad e7 3e
       -0.5029377 -0.8651851 -0.06760763 0.4524941
000390 18 3c c3 3e dc fa fc 3d 4a 1d d2 3d 1c 40 5b 3f
       0.38131785 0.12352535 0.10259493 0.856447
0003a0 f1 f5 13 3d 97 30 3d 3f 63 06 49 be 72 cf 25 3f
       0.03612322 0.7390227 -0.19631343 0.6476966
0003b0 be a1 99 be 4b 09 14 3d 77 74 e8 bc c9 14 bd bd
       -0.30006212 0.036141675 -0.028375847 -0.0923248
0003c0 f5 ee f7 be f1 f3 ad bf 3f 01 86 3f 00 9e 46 bd
       -0.48424497 -1.359007 1.046913 -0.048490524
0003d0 39 97 22 3f 72 18 19 bf fe b4 cb bd fd 02 0b bf
       0.63512 -0.59802926 -0.09946631 -0.54301435
0003e0 54 6f 8b bf 94 e8 0f bf ce 03 c2 3e db 8a 45 bd
       -1.089335 -0.5621426 0.37893528 -0.048228126
0003f0 19 87 1e 3f 83 3a f2 3c 72 c7 8e 3e ac b6 7c be
       0.6192489 0.029568916 0.2788654 -0.24679059

StatefulPartitionedCall/model1/dense_3/MatMul/ReadVariableOp:0 f4 [4, 64]
000000 83 72 5b 3e 6c 4a e3 be 00 c3 db 3f 54 c4 56 40
       0.21430402 -0.44392717 1.7168884 3.355733
000010 2a 7a 30 c0 66 0b 18 3f 50 90 7d c0 31 c6 a0 c0
       -2.7574563 0.5939239 -3.9619331 -5.0241933
000020 3a 28 09 3e 99 8a d3 bf a4 d8 dd bf 26 ee 1c bf
       0.13394251 -1.6526672 -1.7331738 -0.61300886
000030 fb f2 c9 3f 19 09 4d c0 39 d0 70 be 18 27 7d be
       1.5777277 -3.2036803 -0.2351693 -0.24721944
000040 61 48 6b c0 d9 3c 26 c0 4c 73 a7 bf a3 de be bf
       -3.6762927 -2.5974638 -1.3082061 -1.4911693
000050 c1 bd 35 c1 e5 6b 6f c0 21 1f 42 bd c4 74 05 c0
       -11.358827 -3.7409604 -0.047392968 -2.0852518
000060 84 22 d9 be 72 1e 7d 40 3c a9 1e 3f c3 7b ca 3f
       -0.42409146 3.9549832 0.6197698 1.5819019
000070 70 51 4f 40 5c 1e 80 3d 10 17 b3 3f 90 cb 75 3f
       3.2393456 0.062557906 1.3991413 0.96013737
000080 5d eb 5b bc b1 65 3f be 36 81 c0 3e f5 6c 0e 41
       -0.013422814 -0.18691136 0.3759858 8.901601
000090 35 25 83 bd 05 bc 71 3c bb 81 a0 bf d2 bb 05 40
       -0.06403581 0.0147543 -1.2539591 2.0895886
0000a0 8e 1b 4b c0 f5 39 31 c0 bc cb b3 bf 55 15 2e be
       -3.1735568 -2.7691624 -1.404655 -0.17000325
0000b0 bd 76 22 3f bf c9 4a c1 36 2c c0 3f ed 2c 25 c0
       0.6346243 -12.674254 1.5013492 -2.580867
0000c0 94 6e 4a 3d 2b 2c 98 be b7 95 3b 40 eb eb aa 3d
       0.04942186 -0.29721197 2.9310129 0.08345779
0000d0 74 01 b1 bf 83 d2 36 40 a1 0b 06 c0 16 71 5a 40
       -1.3828568 2.8565986 -2.0944598 3.4131522
0000e0 aa 44 ec be 35 f9 88 3e c2 d8 71 bf e2 ea aa 3f
       -0.46146137 0.2675263 -0.9447137 1.335293
0000f0 ed 5b 1e bf 99 d3 cf bf 98 a2 9f 3e f8 e1 f6 3f
       -0.6185902 -1.623645 0.31178737 1.928771
000100 b6 e4 8f 3f 5d 1f 49 bf 01 17 98 3e 07 4f 80 c0
       1.1241672 -0.7856348 0.2970505 -4.009647
000110 c0 52 4a c0 03 73 5e c0 7e fa 4f 40 6a 01 25 40
       -3.1613007 -3.4757698 3.2496638 2.5782113
000120 42 7c 52 be 58 c4 1f 3f 81 ec a0 3e 3c 72 33 3f
       -0.20555213 0.6240897 0.31430438 0.7009618
000130 98 da 9f 40 3d ea 09 bf 10 cb 27 40 99 98 8c 3f
       4.995434 -0.53873044 2.621769 1.0984069
000140 0c 85 66 bf 64 6a 08 40 31 fc ff bc 4a ba 65 be
       -0.90046763 2.1314936 -0.031248184 -0.22434345
000150 d1 83 ab 3f 2f db b4 bf d4 1e a9 3d 85 35 a9 bf
       1.3399602 -1.412939 0.08257833 -1.3219458
000160 f3 51 60 be 08 e2 58 40 64 d7 d5 bf 49 af cb 3c
       -0.21906261 3.3887959 -1.6706357 0.024863856
000170 78 75 23 40 85 b3 91 3e 96 47 7a 3f 8e 7f e7 3f
       2.5540447 0.28457275 0.9776548 1.8085802
000180 25 72 29 3f af fb 3e be 24 4b 3b 40 3d 0f 0f 3f
       0.66189796 -0.18650697 2.9264612 0.55882627
000190 fe 55 70 3f 5b fe 45 bd 0b eb 04 c0 e8 67 04 c0
       0.93881214 -0.048338275 -2.076846 -2.068842
0001a0 ff db 18 bf f2 23 4a c0 cf 87 f0 be 21 e1 c6 3c
       -0.5971069 -3.158444 -0.46978614 0.024277272
0001b0 f9 b4 8a 3e 91 dc 84 3f 3a 34 4d bd 4e 7b 9e c0
       0.27091196 1.0379812 -0.050098635 -4.952552
0001c0 86 00 74 3e d2 a6 ab 3f 10 a8 17 c0 0d d6 b6 3d
       0.23828325 1.3410285 -2.3696327 0.08927546
0001d0 b3 a2 17 40 56 4b a4 3f 2c 39 49 3e 1a 40 ff 3f
       2.3693054 1.2835491 0.19650716 1.9941437
0001e0 3b 2a cc 40 46 2c d5 40 86 1b f0 3d 4e e5 95 c0
       6.380155 6.6616545 0.11724 -4.6842413
0001f0 5c 47 e0 3e ef 94 80 c0 8c e7 74 be a7 40 3f bf
       0.43804443 -4.0181804 -0.23916453 -0.74708027
000200 2f 58 6c 3e fb 6a ee bc bd 41 e2 bf f7 54 08 3e
       0.23080514 -0.029103747 -1.7676312 0.13313662
000210 05 90 f3 3c b2 c4 a9 be 5c f3 a5 3e 39 f1 1a be
       0.02973176 -0.3315788 0.3241223 -0.15131082
000220 05 f2 b5 be 68 67 04 c0 f6 15 d0 be eb ce 59 be
       -0.3553621 -2.0688114 -0.40641755 -0.21270339
000230 6d d3 c5 bd 61 c6 08 c0 d5 ad 91 bc 64 a9 1a bf
       -0.09659467 -2.137108 -0.017783085 -0.6041472
000240 cf 8d e5 bf 9b bf 9b be 48 7d 33 c0 43 f0 31 c0
       -1.7933902 -0.3041962 -2.8045216 -2.7802894
000250 23 52 75 3d 4d 1c a9 bc 63 c3 eb be fa 86 94 bf
       0.059892785 -0.020643378 -0.46047506 -1.1603692
000260 af a2 1b bf 0a a5 03 be f8 56 56 bf d2 bc 8e bd
       -0.6079511 -0.12855926 -0.83726454 -0.06969608
000270 e4 07 b8 3c da 89 80 3e c3 92 0d bf 79 1b 4a bf
       0.0224647 0.25105172 -0.55302066 -0.7894817
000280 2c 19 9b bb 00 6b 7d 3e 20 fd 90 3e df 12 b1 3d
       -0.0047332253 0.24747849 0.2831812 0.086461775
000290 85 ec 3c 3e 5c 3b 7b 3e 84 9d 9d 3e 28 ba 7f bf
       0.184496 0.24534363 0.30784237 -0.99893427
0002a0 6a be 0d c0 95 26 f8 3d 0d 5d c7 bf c1 ed e5 3d
       -2.214747 0.12116734 -1.5575272 0.112269886
0002b0 cf a3 f3 be 7a 0c ac 3d ff 82 2c bf 93 19 4b 3e
       -0.47585914 0.08400817 -0.67387384 0.19833975
0002c0 bf a0 97 3e 4a 68 19 bf 30 61 a3 3e f5 55 b0 3e
       0.29614827 -0.5992476 0.31910086 0.3444058
0002d0 b6 79 f5 3e 61 0e 54 bf 26 60 29 c0 48 6e e9 3d
       0.4794442 -0.8283444 -2.6464934 0.113979876
0002e0 63 aa a3 3d b7 02 c0 bc 62 c9 8d bf 0e db dd be
       0.07991483 -0.023438795 -1.1077082 -0.43331188
0002f0 4a 9e d7 bf 51 0a 48 3d 25 32 f9 be 8d 2d 31 3e
       -1.6845181 0.048837963 -0.4867107 0.17302532
000300 37 7b 4a 3f 9c 85 e6 bc 6c 6a b7 3e 44 1e dd be
       0.7909426 -0.028139882 0.3582338 -0.43187153
000310 23 b3 3a c0 52 54 2b 3f 79 c3 71 3f 27 60 01 c0
       -2.9171836 0.6692554 0.9443889 -2.0214937
000320 4c 9a 57 3d b5 1b c4 3f f5 ff 2d bf 99 ae e2 40
       0.052637383 1.5320956 -0.67968684 7.083813
000330 ec 69 1c be f6 0e a9 3e 8f 36 c2 be aa e3 0d 40
       -0.15274781 0.33019227 -0.3793225 2.2170205
000340 bb 05 37 3f 1c f7 32 bf 6f 7b f6 3f 79 13 97 3f
       0.7149312 -0.6990831 1.9256419 1.1802818
000350 ea 0e 34 bf 4e 30 b5 c0 77 9d 11 bd d9 7d c5 bf
       -0.7033526 -5.6621466 -0.03555056 -1.5429031
000360 ee 1e 46 3f 7a 9e 35 40 87 ee f9 3d a8 7a 0f 3e
       0.77390945 2.8377976 0.122036986 0.14011633
000370 d3 09 ea 3f db bf 67 3d a6 f1 9b bf 22 88 35 40
       1.8284248 0.056579452 -1.218312 2.836434
000380 c3 5b d3 40 16 96 1f be b3 6e a2 c0 50 b6 1b c0
       6.6049514 -0.15584597 -5.076013 -2.4330025
000390 5c 1f 16 3f 77 aa a0 3f d9 bf cb c0 75 10 33 c0
       0.586416 1.2552022 -6.367169 -2.7978795
0003a0 f4 66 22 3f 3c 20 51 be 25 e0 e1 3e 97 6e 4f be
       0.63438344 -0.20422453 0.4411632 -0.2025703
0003b0 b4 72 0e 3e 1d a5 8a be 78 42 ca 3e 0b 54 c0 3f
       0.13910943 -0.27079096 0.39503837 1.5025648
0003c0 11 8c 53 3f 5a 2d 80 3e b4 92 67 c0 88 ef 44 3f
       0.826356 0.250346 -3.618329 0.76927996
0003d0 da c7 80 40 1f 12 08 3f fa 42 94 3f 51 9d 07 3f
       4.024396 0.5315265 1.158294 0.5297442
0003e0 ee bf 01 40 13 e3 99 bf e0 8d ff 3d 04 c1 c1 bd
       2.0273395 -1.2022423 0.124782324 -0.09460643
0003f0 06 35 1f 3d 9f f3 82 c0 9f 55 8e be f4 2d 4f be
       0.038868926 -4.092239 -0.277997 -0.20232373

StatefulPartitionedCall/model1/dense_2/MatMul/ReadVariableOp:0 f4 [16, 16]
000000 b2 a2 43 bf 7a 4a 8e 3f bc 8a da 3f 8a bc 8e bf
       -0.7642013 1.1116478 1.7073588 -1.1151288
000010 0a 9e 20 be 12 5d 22 40 fb a3 49 c0 3d 34 6c 3e
       -0.15685287 2.5369306 -3.1506336 0.23066802
000020 ff fd 00 c0 b4 42 75 be a0 df 95 bf e7 7e 61 3f
       -2.0155027 -0.23951226 -1.170887 0.8808426
000030 85 18 16 c0 fc 28 04 c0 d9 ef a9 3f 38 86 b3 bf
       -2.3452466 -2.0650015 1.3276321 -1.4025335
000040 8f 82 38 40 9b 51 48 3f dc 56 a6 bc 8c 23 47 3f
       2.8829687 0.7824952 -0.02030509 0.77788615
000050 66 3e 8c bf b8 08 5a bf bc 3e a7 bf 89 5c 91 3f
       -1.0956542 -0.85169554 -1.306602 1.1356364
000060 5b 08 81 3f f2 75 ea 3f 63 c5 09 3f 4c ef a2 3f
       1.0080675 1.8317244 0.53816813 1.2729278
000070 1c 0f 73 3e 81 4a 16 3f f1 b1 a2 be 96 11 62 bf
       0.23736233 0.58707434 -0.31776384 -0.88308084
000080 0c db 6a bf b0 18 59 3f ba 81 09 3e d6 71 56 40
       -0.9174049 0.84803295 0.13428393 3.350698
000090 1b 77 b4 bf 93 86 ca 3f 9c 3d 21 bf 65 e5 7b 3f
       -1.4098848 1.5822319 -0.62984633 0.98396903
0000a0 5e 50 83 3f ec f0 9e bf 23 db 24 40 f9 4c d9 3f
       1.0258901 -1.2417274 2.575875 1.6976615
0000b0 eb 17 5a 40 45 a5 e7 be 1c c4 2b 3f a3 59 94 3f
       3.4077098 -0.45243278 0.67096114 1.1589855
0000c0 49 cd 23 3f 6b 92 2f bf cc 8d bd be 91 57 36 40
       0.63985115 -0.6858279 -0.37022245 2.8490946
0000d0 96 85 49 be ae 0d d5 bd 4f 5e a1 bf 0a e7 d1 bf
       -0.19679865 -0.10403 -1.2606906 -1.6398633
0000e0 92 2e 05 c0 99 1b 20 3f d9 ca 39 3f b1 6c 51 c0
       -2.0809674 0.6254211 0.72575146 -3.272259
0000f0 30 66 0f bf 5c a6 d0 3f 6e 8f 1e 40 4d 15 5b 40
       -0.560153 1.6300769 2.4775043 3.423175
000100 c9 39 14 bf 2b 73 63 3e b2 0e 8f 3d 45 98 22 3e
       -0.57900673 0.22211902 0.06985225 0.15878399
000110 2e b3 82 ba a4 a8 59 3f f7 d4 45 3f 5a 37 c8 bd
       -0.0009971613 0.8502295 0.77278084 -0.097761825
000120 21 8e be 3e cc f6 5a bf e8 b3 c0 3d 9e 18 17 39
       0.3721781 -0.8553283 0.094093144 0.00014409653
000130 cd 80 ac 3e 6a 83 47 be 4f 4e 27 3e 3b 94 70 bd
       0.33692017 -0.19483724 0.16338466 -0.058735114
000140 2b e8 97 be 55 86 1b 3e c1 65 58 bd 2c 05 6b 3e
       -0.29669318 0.15187962 -0.052831415 0.22951192
000150 b6 22 bd bd dc 49 b3 bc 39 b1 cd 3e 6b 25 6d 3e
       -0.09235136 -0.021885805 0.40174273 0.23158805
000160 db 4b 6d be 19 40 dd bd 8b e0 1c be b9 14 8f be
       -0.23173468 -0.10803241 -0.15320031 -0.27945498
000170 59 a6 5f be b3 3a ef 3d 21 e6 80 be 63 d4 d2 3d
       -0.218408 0.11681118 -0.25175574 0.10294416
000180 3d 99 12 40 99 6e 6d 40 4e 8d c8 bf 55 44 1f 3f
       2.290603 3.7098753 -1.5668123 0.6221364
000190 2b 5c b8 c0 2d dd b4 bd 36 66 3f bf ba 38 87 40
       -5.761251 -0.088312484 -0.74765337 4.2256746
0001a0 92 00 f3 3f 83 37 4a bf 8d 94 ec 3f 52 52 4f 40
       1.8984549 -0.78990954 1.8482834 3.2393994
0001b0 56 54 53 bd 9b f0 1b 3f 9a bd d3 3f 5a 79 0d c0
       -0.0515941 0.6091401 1.6542237 -2.2105317
0001c0 d4 4b f9 3e b4 50 4e bd a9 eb 1c 3f f7 17 b7 bf
       0.48690665 -0.050369933 0.6129709 -1.4304188
0001d0 c8 07 91 3f d6 86 af bf f2 9e 0b 40 94 88 79 3e
       1.13305 -1.3713024 2.1815763 0.24368507
0001e0 de a5 72 3f 4a 12 10 3f 02 59 4c bd c1 e1 69 be
       0.94784343 0.56277907 -0.049889572 -0.22840025
0001f0 80 7d 11 40 a3 bd ae 3f e2 74 27 c0 cf de 50 c0
       2.273285 1.3651623 -2.616509 -3.2635992
000200 b3 3e 04 c0 b3 8f 61 bf 6a 00 3d 40 4e 64 35 c0
       -2.0663269 -0.8810989 2.9531503 -2.834247
000210 bc 3a 18 be f0 60 50 40 0e 53 f2 3f 43 24 2c bf
       -0.14866155 3.2559166 1.8931596 -0.6724283
000220 ef 7b 09 bf 55 f5 89 3f 92 91 73 bf fb 14 40 3e
       -0.5370473 1.0777994 -0.95144 0.18758003
000230 59 4d 8f 40 3a 74 63 c0 de b4 84 c0 0f 82 19 c0
       4.478192 -3.553969 -4.1470785 -2.3985631
000240 67 35 e7 3e ce 78 bc 3d ff 8b 11 40 6d 16 c4 bd
       0.4515793 0.09202729 2.2741697 -0.0957459
000250 2b f3 5c 3f 30 e7 69 bf 77 de 48 3f 55 da ab bf
       0.86308545 -0.9136839 0.78464454 -1.3426005
000260 5e 68 40 3f ab c4 2d 40 e1 81 20 c0 60 8b 69 bd
       0.7515925 2.7151287 -2.5079272 -0.057017684
000270 94 72 0d bf 75 33 43 3f 2b 95 37 3e ad b6 41 3f
       -0.5525296 0.7625039 0.17927997 0.75669366
000280 27 21 66 c0 4f 12 c4 bf 49 5b 5c 3f 4e 6a 1e bf
       -3.5957735 -1.5318087 0.8607679 -0.6188096
000290 53 ee 86 bf 6b 27 86 3f 8d 94 0a 40 67 25 99 bf
       -1.0541481 1.048078 2.1653168 -1.1964539
0002a0 6c 5d 62 c0 f6 37 08 c0 5c 49 8c 3e 4c 43 f9 3f
       -3.536952 -2.1284156 0.2739972 1.9473662
0002b0 bf bb 9f bf ba fa 0f c0 10 2e 30 3e e8 0f d1 3f
       -1.247917 -2.2496781 0.17205071 1.6332979
0002c0 da f0 1e c0 9f 1b 9a 3f 7d 87 03 40 38 78 2a 40
       -2.4834504 1.2039679 2.0551445 2.6635876
0002d0 91 cb 66 be e5 4c 1a 40 76 b5 3f 3e ba f1 30 3b
       -0.22538592 2.4109433 0.18721566 0.002699955
0002e0 13 44 2f bf 90 01 e3 3e a9 cf 20 40 5d 9f 99 3f
       -0.6846325 0.4433713 2.5126746 1.2001759
0002f0 3a 8d be be a5 e6 c3 bf e0 e4 44 3f eb bf 45 3f
       -0.37217122 -1.5304762 0.76911736 0.7724597
000300 11 55 d8 be aa d4 06 c0 ca 70 11 c0 b7 82 2e 3f
       -0.422524 -2.10673 -2.272509 0.68168205
000310 ec 78 c3 be 45 64 76 c0 8f 4d 37 3f 5b 41 cc 3d
       -0.38178194 -3.84987 0.7160272 0.09973403
000320 ae ea af be 72 91 b1 c0 26 9b 62 40 d6 1b 1a 3e
       -0.34358734 -5.5490046 3.5407195 0.15049681
000330 9c 74 cd bf 3d 4e 22 be 8b 36 26 be 04 53 bd 3f
       -1.6051211 -0.15850158 -0.16231744 1.4790959
000340 d3 e3 2a 40 e5 66 1a 40 8e d6 75 3e 61 29 c9 3f
       2.6701553 2.4125302 0.24007627 1.5715753
000350 42 30 27 c0 5b c0 7d 3f c2 14 8e bf 05 7e 4a 40
       -2.6123204 0.99121636 -1.1100085 3.1639416
000360 2f b1 9d be f5 cd 34 3f 26 cf e0 3f a5 2e d3 3d
       -0.30799243 0.70626765 1.7563217 0.10311631
000370 f6 df d9 be 4e c0 0c 3e e5 b9 d4 3e 1a 9b 54 bf
       -0.4255368 0.13745233 0.41548076 -0.83049166
000380 d7 40 a4 3e 67 ae e2 3f 69 f6 53 be d0 45 95 3f
       0.3208072 1.7709473 -0.20699467 1.166193
000390 a9 f0 f1 3e 30 bf e5 3f e8 77 19 c0 09 08 f9 3f
       0.47253922 1.7948971 -2.3979435 1.9455577
0003a0 ff f6 1d 40 da ea 37 3f 56 34 4f c0 ba 81 61 40
       2.4682004 0.7184273 -3.2375693 3.523543
0003b0 a2 63 ff 3f f6 71 1f bf 4c 5b 5b 40 64 aa 32 be
       1.995228 -0.62283266 3.4274473 -0.17447811
0003c0 5c 61 1a bd 08 d5 5d 3e 33 76 79 3e ca b7 0f bf
       -0.037690505 0.21663296 0.24361496 -0.56139815
0003d0 d1 8c 28 3e 8a 1a b4 bd f8 17 2c 3e 3b df 7d be
       0.16459967 -0.087941244 0.16806018 -0.24792187
0003e0 0a c1 1d 3e 35 2e c7 be 0f 42 56 3e 49 41 04 3d
       0.1540567 -0.3890244 0.20923637 0.032288823
0003f0 98 ca 12 3f 4f 2d 74 bd 3c 65 a3 3d 12 aa e9 be
       0.57340384 -0.059613522 0.07978293 -0.45637566

StatefulPartitionedCall/model1/dense_1/MatMul/ReadVariableOp:0 f4 [128, 16]
000000 f2 45 1e be 80 26 10 3d 3a ea 93 be 4d 27 51 bc
       -0.1545637 0.035192966 -0.28889638 -0.012765718
000010 c1 d4 87 be 21 46 9a be 55 c7 fc 3c 47 e0 a9 be
       -0.26529506 -0.3013163 0.030856768 -0.33178923
000020 5c d2 80 3e 59 a9 e6 be b2 0b cb 3d ca ea ca bc
       0.2516049 -0.45051077 0.0991434 -0.02477016
000030 8a 7f 9b bc 17 92 5c 3e f3 fb c5 3d 1a 64 be bd
       -0.018981714 0.21540104 0.09667196 -0.092964366
000040 df cb 2a 3e 52 df b4 bf 96 71 86 c0 b3 c1 8a 3f
       0.16679333 -1.4130652 -4.2013655 1.0840362
000050 97 e3 6c bf 6e eb 84 be 4f 30 df bf 57 48 cd be
       -0.92534775 -0.2596087 -1.7436618 -0.40094253
000060 af 84 03 bf 30 9c bc be f5 2e e7 3f d2 92 a2 bf
       -0.51374334 -0.36837912 1.8061205 -1.2701056
000070 eb a9 1f 40 02 05 2b c0 18 7b 25 c0 12 ba dc 3d
       2.494746 -2.6721807 -2.585638 0.107776776
000080 32 af d3 3f 2c 3f bd 3d 31 3a 79 c0 40 0f ce bf
       1.653784 0.09240565 -3.8941767 -1.6098404
000090 a1 87 aa be e7 90 26 bd 33 c5 0f bd 36 11 a5 3e
       -0.33306602 -0.040665533 -0.035100173 0.32239693
0000a0 58 a8 46 bf 15 1e 77 c0 8e bd 0e 40 7d 4f 44 bf
       -0.7760062 -3.861211 2.2303195 -0.7668379
0000b0 4a 88 0b 40 58 69 b2 be 00 f6 1d bf b7 0e 42 be
       2.1801934 -0.34845996 -0.6170349 -0.18950926
0000c0 be a8 84 be fa f6 bf bf c2 ba 0a c0 dd 76 31 3f
       -0.2590999 -1.4997246 -2.1676488 0.69321996
0000d0 e1 db e8 be f4 4b 7b be 43 c5 4b c0 99 19 0b 3e
       -0.45480254 -0.24540693 -3.183915 0.13583983
0000e0 d4 82 87 3f af 46 3f 3f ab aa c1 3f 2e 43 15 3f
       1.05868 0.7471723 1.5130209 0.58305633
0000f0 8e e9 18 3f 1e 42 b5 bf 60 94 69 c0 06 91 a3 3d
       0.59731376 -1.4160802 -3.649681 0.079866454
000100 96 39 30 40 7d d4 79 bf 9f e1 a9 bf 1f 87 54 be
       2.7535148 -0.97589856 -1.3271979 -0.2075467
000110 0d 5b 15 3c 16 c3 3f bd f8 94 b0 bf ed cc 7e be
       0.0091159465 -0.046816908 -1.3795462 -0.2488286
000120 0b c8 8e 3f c7 44 11 bf 87 9c bc bd ee 19 9d be
       1.1154798 -0.5674557 -0.09209543 -0.30683845
000130 5f fa 4c bf 79 0e 28 3d e3 8c c1 3f 27 01 0d be
       -0.80069536 0.041029427 1.512112 -0.13769971
000140 f9 22 de be 99 d2 da bd 5b 95 d9 be db bf 5d bf
       -0.43386057 -0.106846996 -0.42496762 -0.86620873
000150 32 40 e9 3c da 0d 88 3d b8 f2 93 bd c9 df 3f 3e
       0.028472994 0.06643267 -0.07224029 0.18737711
000160 7b 5c 39 be e6 1f 8e be b1 88 ae 3f b1 f5 6f bf
       -0.18101685 -0.27758712 1.3635465 -0.9373427
000170 5d 24 3c be a0 38 02 bf 95 5b dd bf 88 e7 40 be
       -0.18373246 -0.5086765 -1.7293574 -0.18838322
000180 b4 aa ad bd 4a da 57 c0 37 f1 ae bf 8e 0b cb bc
       -0.08479825 -3.3726983 -1.3667363 -0.024785783
000190 a1 6d ac be e7 87 79 be 55 98 0e c0 27 71 9e bf
       -0.3367739 -0.24368249 -2.2280476 -1.2378281
0001a0 02 fb b2 3e 40 e1 f3 be 99 c6 84 40 d1 a6 f8 bf
       0.3495713 -0.4763279 4.149243 -1.9425908
0001b0 c2 86 87 3e 73 8b 81 c0 55 6f 0a c0 3d 7b 10 be
       0.2647 -4.0482726 -2.1630452 -0.14109512
0001c0 5f ee b8 bc c2 7c 30 c0 ae 8a 80 40 3f 92 56 c0
       -0.022574602 -2.7576146 4.0169287 -3.3526762
0001d0 fd c1 8f 3e 8e 6c c4 bd 5a e6 63 bf b0 da 44 40
       0.2807769 -0.09591018 -0.89023364 3.0758476
0001e0 85 bf 96 40 56 22 6b 40 e3 e5 2b 40 46 ac 22 40
       4.710879 3.6739707 2.6859062 2.5417647
0001f0 8c 28 a7 c0 b5 22 23 c0 3a e2 0b 40 dd 2b d8 3d
       -5.2236996 -2.5489933 2.1856828 0.10555241
000200 1f 6f be bd d1 82 2a be 9c 51 ae bd 07 ad b8 bd
       -0.092985384 -0.16651465 -0.085116595 -0.09017377
000210 e3 33 a8 be 0a ec 9c be 0b 20 94 bd 2a a2 ea be
       -0.32852086 -0.30648834 -0.07232674 -0.45826846
000220 b6 6e e1 3d c9 80 9b be 84 9c ef bc ba 6a 48 bd
       0.110074446 -0.30371693 -0.029249437 -0.048929907
000230 58 11 31 bd da 8f 8d 3e df d2 2f 3e 5b 0f 45 be
       -0.04322943 0.27648813 0.17170285 -0.19244139
000240 89 fa 0c 3e e1 af fe be 44 bc 92 3e 40 10 29 bd
       0.13767447 -0.4974356 0.2865926 -0.041275263
000250 e2 f8 c9 3e 84 2b 0d bd 60 ee dc bd 21 61 89 bd
       0.39447695 -0.034465328 -0.10787654 -0.06707979
000260 13 d2 1d bd 7f d3 3b be 1e 96 8d bc dc 89 6b be
       -0.03853042 -0.18342398 -0.017283496 -0.23001808
000270 52 6b 8b 3c 5e de 47 3e e8 d2 dc bb 0a 58 17 3c
       0.017018948 0.1951842 -0.006739009 0.009237299
000280 94 03 93 3e c3 c2 21 be 23 11 bb be ca 7a 64 3c
       0.28713667 -0.15796952 -0.36536512 0.013945291
000290 f9 de 17 3d c9 69 fb 3d 8e 8a 9c bd 86 96 24 be
       0.037077878 0.12276036 -0.07643615 -0.16073045
0002a0 53 55 4c 3c a4 4f 0b 3d e9 cc 2c 3e 53 42 4d be
       0.012471515 0.034011498 0.16875042 -0.20044832
0002b0 99 6c b4 bc 9e 32 bf be aa 18 9b 3a ca 4e 7b be
       -0.02202444 -0.37343305 0.0011832912 -0.24541774
0002c0 46 f8 c8 3f fa 90 e2 bf b6 98 cf bf bc 82 97 bf
       1.5700767 -1.7700493 -1.6218479 -1.1836772
0002d0 e1 14 8b bf ee e1 06 3d 5a 77 ff bf 05 57 7e 3f
       -1.0865747 0.032930307 -1.9958298 0.9935153
0002e0 9c ba c6 3f a3 c4 dd 3e ff 40 81 3f 47 a9 21 3f
       1.5525699 0.43314084 1.009796 0.6314892
0002f0 3e 37 a7 be d2 56 c0 bf b4 01 5e c0 99 79 b0 be
       -0.32659334 -1.5026495 -3.468854 -0.34467772
000300 9d 27 6c 3e 41 58 7d bd 09 f9 13 be 66 14 7b 3e
       0.23061986 -0.061851744 -0.14450468 0.245195
000310 f0 a4 af bd f3 33 b9 3d a2 a9 83 bd 02 57 e7 bd
       -0.08576381 0.09043112 -0.06428839 -0.11295892
000320 6d 67 88 bd 74 2a 82 bd 32 63 16 3e cc 41 9a 3e
       -0.06660352 -0.063557535 0.14686278 0.30128324
000330 0a b3 ee bc 81 7b 30 bf 68 16 b6 3d 24 25 c1 bd
       -0.029138107 -0.6893845 0.088909924 -0.09430912
000340 20 cb 26 bf 0d 11 2b 3f 55 0b 6a c0 df 70 d3 3f
       -0.65153694 0.6682289 -3.6569417 1.651882
000350 0f 42 92 bf 74 36 86 bd 27 4b e7 3f d3 2f 46 c0
       -1.142641 -0.06553355 1.806981 -3.096669
000360 ee eb b7 c0 2e bb 36 c0 09 3a a7 3f c8 ca 6b c0
       -5.74755 -2.8551745 1.3064586 -3.6842518
000370 6a c7 05 40 f0 2c cc 3f f3 7e 54 bf 52 6e 51 be
       2.0902963 1.5951214 -0.8300621 -0.2045224
000380 84 96 ae 3d 20 e8 98 3e 01 49 e7 3d 0a 0d 59 bb
       0.08524802 0.29864597 0.11293221 -0.0033119344
000390 66 c2 fe 3c 6b 06 e0 3d f0 7f 90 ba db fd 73 be
       0.031098556 0.10938724 -0.0011024456 -0.23827307
0003a0 89 5f 5e bd 0f 3e d5 3d 35 22 40 bd 27 ef 35 bc
       -0.05429033 0.10412227 -0.046907622 -0.011104382
0003b0 fd eb a8 3c 08 da 88 be 7d 4e ec bd 1a d7 77 3d
       0.02062034 -0.26728845 -0.11538408 0.06050787
0003c0 e5 da 49 3f a1 9b 6b c0 3d d9 6c bf 34 85 84 3e
       0.7884963 -3.6813738 -0.9251898 0.25882876
0003d0 80 00 c0 be d2 2d b1 bd 6f 88 36 c0 57 02 ca bf
       -0.3750038 -0.08651318 -2.8520772 -1.5781964
0003e0 89 37 2e bf 08 4c fe be 4c 77 47 40 7b bd 03 c0
       -0.6805349 -0.49667382 3.1166563 -2.05844
0003f0 1d 3b 0e 3e 2d 11 09 c0 63 83 cc 3f 24 f6 ea bd
       0.13889737 -2.1416733 1.5977596 -0.11472729

StatefulPartitionedCall/model1/dense/MatMul/ReadVariableOp:0 f4 [8, 128]
000000 89 ea f1 3f 05 bb 84 3f ba 01 f1 3f f5 86 b5 3f
       1.88997 1.0369574 1.8828652 1.4181811
000010 7d 96 23 c0 28 15 19 40 41 ed 85 40 c6 83 3a c0
       -2.55606 2.3919163 4.1852117 -2.9142928
000020 ec c3 3a 3f b6 4b 6a be fe 59 27 3d e3 e8 c2 3f
       0.72955203 -0.22880444 0.040857308 1.5227321
000030 75 07 c7 3e ba 18 22 40 03 b2 d6 be d2 e3 5e 40
       0.38872877 2.5327592 -0.41932687 3.482655
000040 5f 0c 37 c0 a8 a5 06 c0 13 29 1a bf be 7f 38 3f
       -2.86013 -2.1038609 -0.60218924 0.7206992
000050 c3 6d 23 3f 75 d7 18 bf 71 0b 8e bf 41 ec 51 be
       0.6383936 -0.5970376 -1.1097242 -0.2050028
000060 d6 d8 54 3e f3 cc 86 bf c0 bd 4e 3e f8 35 fc 3f
       0.20785841 -1.0531296 0.20189571 1.970397
000070 54 4d 3b be 1b 57 c5 bd bc 38 91 3f 74 15 59 40
       -0.18291217 -0.09635755 1.1345439 3.3919344
000080 89 96 00 40 cb 7e 11 be 0b 60 9d bf 7f f3 5f 3f
       2.009188 -0.14208524 -1.2294935 0.8748092
000090 b3 8b 13 c0 a7 a0 d5 bf ae 7c 15 bf b2 1b f3 be
       -2.3054016 -1.6689652 -0.5839337 -0.47482067
0000a0 18 0a a2 3f ca 29 d3 bf 0b d0 7f 3f 5a 05 d5 3f
       1.265933 -1.6497128 0.99926823 1.6642258
0000b0 d8 60 99 bf 82 ac ae bf aa cb 16 40 91 86 a3 bd
       -1.1982679 -1.3646395 2.3561807 -0.07984651
0000c0 b2 21 1c c0 73 04 22 bf 21 d3 8e 40 56 d2 e0 be
       -2.4395566 -0.6328804 4.4632726 -0.43910474
0000d0 2c 7e 0e 40 75 9b 04 40 13 79 ff bf 02 17 f1 bd
       2.226451 2.0719883 -1.9958824 -0.117719665
0000e0 e1 7a 33 be a8 1a 9f 3f d6 f5 dc 3f f3 47 00 40
       -0.17527343 1.243001 1.7262523 2.0043914
0000f0 9c 41 c0 3d b4 15 7e 3e 97 ff 51 3e e6 8e ac 3e
       0.09387514 0.24812967 0.20507656 0.33702773
000100 2f 26 26 40 ef d5 a0 3f 96 44 82 3f c3 23 d2 3f
       2.5960805 1.2565287 1.0177181 1.6417164
000110 34 e0 e0 bf 51 aa 0a c0 5b 42 f7 3f 81 83 1e 40
       -1.7568421 -2.1666453 1.9317125 2.4767764
000120 be 85 07 40 45 54 d5 be 27 ea 32 3f 6b e0 ea bd
       2.117538 -0.41665855 0.6988854 -0.114685856
000130 1f 74 02 3f a4 96 c1 be 8a c7 82 be ba f0 10 3f
       0.50958437 -0.37810242 -0.2554286 0.5661732
000140 77 1f e3 3e 14 de a8 3f db 19 20 40 66 bb a3 3e
       0.44359943 1.3192773 2.501578 0.3197891
000150 73 57 8d bd 1e 30 a4 3f 9c f1 ce bf 1a 54 81 40
       -0.06901445 1.2827184 -1.6167483 4.0415163
000160 20 fa 2a 3f 68 fa 02 c0 27 40 66 3f 04 f9 1d 40
       0.6678791 -2.0465336 0.8994164 2.4683237
000170 bb eb 37 3f f5 c0 76 3f b1 b0 98 bf 3d 6e 4a bf
       0.7184407 0.9638818 -1.1928922 -0.7907446
000180 1c 4c 2b 40 89 a7 fc 3e d4 7f 09 3e 0b 06 81 bf
       2.6765203 0.4934657 0.13427669 -1.0079969
000190 6e 52 2e 40 b7 d4 b7 3f 6f be 31 bf 79 c0 0b bc
       2.723781 1.436179 -0.69431204 -0.008529776
0001a0 2a e1 12 3e 94 41 06 3d b2 62 39 bf 6e c4 df 3f
       0.14343706 0.032777384 -0.7241622 1.748182
0001b0 99 d6 6c 3f 02 1a 0f bf 1b c6 87 be 55 0b 43 c0
       0.9251495 -0.5589906 -0.2651833 -3.0475667
0001c0 ca ca f3 3d 62 e7 40 bf a0 d7 f1 be 5e a0 67 3d
       0.11903913 -0.7535306 -0.4723482 0.056549422
0001d0 78 26 07 bf 92 80 ff bf e1 f0 18 40 ad 18 2b 3f
       -0.52793074 -1.9961112 2.389702 0.6683453
0001e0 c6 21 37 40 c2 33 96 bd fa 1f 79 3f 84 a5 15 40
       2.8614364 -0.07334091 0.9731442 2.3382273
0001f0 db 18 06 c0 c8 b4 46 bf 24 2e 48 be b6 ec 9b 3f
       -2.095267 -0.776196 -0.19548851 1.2181613
000200 02 d7 3a bc 10 d4 7e 40 a8 4d 86 3f 11 4a 23 40
       -0.011403801 3.9816933 1.0492449 2.5513957
000210 70 a0 ad 3a 67 58 29 3d 1d 54 d7 3e fe a3 6e be
       0.0013246667 0.041344073 0.4205636 -0.23304746
000220 05 3b 7e bd 16 f1 1d be 06 9b c7 3e 09 04 49 40
       -0.062068004 -0.15423998 0.3898546 3.1408713
000230 23 33 d5 bd 84 58 0c 3f 49 72 df 3e 8f d2 1d bf
       -0.10410144 0.54822564 0.4364188 -0.6164941
000240 7c 1b 8a be d9 fb 30 40 7e 98 24 bf b7 8e 5c bf
       -0.26974094 2.7653716 -0.64295185 -0.86155266
000250 92 1b d6 bf b2 af 82 3f 97 45 08 c0 96 3e 4a 3e
       -1.6727164 1.0209868 -2.1292474 0.19750437
000260 61 e2 63 3e b5 9c ff 3f b2 85 9a be fa 88 b3 bd
       0.22254325 1.9969698 -0.30180126 -0.087663606
000270 0e 6b f7 be 75 fe 86 bf ae e8 0f 40 2b 09 19 3e
       -0.48323864 -1.0546404 2.2485766 0.14944904
000280 43 fc ec 3f 22 4e 4b 3f 51 9b 15 40 ad f7 58 3e
       1.8514484 0.79416096 2.3376048 0.21188231
000290 87 5e 28 bd 41 8c 46 3f 18 78 e9 3f d9 8b 02 bd
       -0.041105773 0.7755776 1.8239775 -0.03187165
0002a0 d5 48 ee 3f 0f 00 e4 3f 99 5c bb bf 9e 99 9d be
       1.8615977 1.7812518 -1.4637634 -0.30781263
0002b0 be 5e f5 3f a8 aa 00 40 a6 be 9e 3e 66 c0 73 3c
       1.9169538 2.010416 0.31004828 0.014877414
0002c0 53 d6 0a c0 39 52 38 c0 c3 e7 87 bf 2b bc a2 3e
       -2.1693313 -2.8800185 -1.0617603 0.31784186
0002d0 63 cc 82 3d 5a ef 03 bf 76 32 37 3f bf 9b df 3d
       0.0638664 -0.51537097 0.7156137 0.10918378
0002e0 a1 34 4e be ac 87 80 3e 90 a0 79 3e 96 d0 60 3e
       -0.20137264 0.2510351 0.24377656 0.21954569
0002f0 71 16 3b bf 45 7c 45 bd f5 fa 4f bf 11 36 b1 3e
       -0.7308112 -0.048214216 -0.81242305 0.34611562
000300 a2 9e 2e bf a6 3c 10 40 a2 55 ca 3e f2 4b 3c 3e
       -0.68210804 2.2537017 0.39518458 0.18388346
000310 56 17 3a c0 85 c0 85 bf bb 8b 67 bd 5e fc 80 3f
       -2.9076743 -1.0449377 -0.05652974 1.0077016
000320 be dc f5 3e c1 70 4e bf 4a c6 24 be 78 44 64 be
       0.48019975 -0.806408 -0.16091266 -0.22291744
000330 da 3b 86 be 28 44 06 3f 5e 16 83 3f c6 35 4f 3d
       -0.26217538 0.5244775 1.0241201 0.05058839
000340 47 a1 14 be f9 1f 9b be 53 93 75 3d 69 3c 65 40
       -0.14514647 -0.3029783 0.059954952 3.5818121
000350 2f f2 5d 40 4d 1b 60 3e a9 a1 40 3f 9d 57 af be
       3.4679067 0.21885414 0.75246674 -0.3424653
000360 21 2b 65 bf 6f 16 29 3f 7a da 1b bf 1a 8d 4f be
       -0.89518934 0.66049856 -0.60880244 -0.2026867
000370 93 3f 69 3e ae 4a 04 3f 21 09 cd 3f 82 e5 c0 3e
       0.22778158 0.5167645 1.6018411 0.376751
000380 1e 4a 50 3f 17 8f d8 be 8b 31 09 3f 14 88 56 3e
       0.81363094 -0.4229667 0.5359122 0.20950347
000390 e1 76 fe be 11 8b 59 3f 5f 5f 80 bf 23 a3 e2 be
       -0.49700072 0.84977823 -1.0029105 -0.44265088
0003a0 6e 02 0f bd 79 44 04 bf da 51 7b 3e 0f 7f 19 be
       -0.034914427 -0.5166698 0.24542943 -0.14989875
0003b0 27 3d 97 bf b9 6b 65 40 27 76 84 3e ec 49 23 3e
       -1.1815537 3.5846999 0.25871393 0.15946168
0003c0 7c e1 14 3f 40 fb bb 3f b9 af a5 be 26 12 db 3e
       0.5815656 1.468605 -0.32360628 0.42787284
0003d0 1e b8 4a 3f b2 d6 a9 3f d6 ef 52 3f d2 72 41 bd
       0.7918719 1.3268645 0.8239721 -0.04722864
0003e0 7d 28 7b 3f 66 25 21 3d da 8f f6 bf b0 d7 a4 bf
       0.98108655 0.039342307 -1.926265 -1.2878323
0003f0 5b 56 31 bf ac e3 0c c0 96 17 0e be ad dd 2e 3e
       -0.69272393 -2.201396 -0.13876185 0.1707675
